models/best.pt (torch, 602313 bytes, 12 tensors)

conv1.weight f4 [32, 3, 3, 3]
0	0xbe89c418	-0.2690742
1	0xbe683d5b	-0.22679655
2	0x3d88d996	0.06682126
3	0xbe9ddddf	-0.30833337
4	0xbe8bbfd5	-0.27294794
5	0x3b895012	0.0041904533
6	0xbe82b22a	-0.25526553
7	0x3d9c306f	0.076264255
8	0x3cceccf1	0.025244208
9	0xbd678f81	-0.05653334
10	0xbd945840	-0.07243395
11	0xbe159232	-0.1460655
12	0xbded5c4c	-0.1158987
13	0xbdd3e094	-0.10345569
14	0xbe52cd42	-0.20586112
15	0x3e0c6568	0.13710558
16	0xbd996b58	-0.07491177
17	0xbd9fc3da	-0.078010276
18	0x3e893adc	0.2680272
19	0x3dae5c11	0.08513654
20	0x3e12510a	0.14288726
21	0x3e6def8b	0.2323591
22	0x3e862603	0.26200876
23	0x3e81c7bd	0.253477
24	0x3e2dca8f	0.16971801
25	0x3d586539	0.05283091
26	0x3ea72293	0.32643566
27	0xbecb6191	-0.39722875
28	0x3debddf1	0.11516941
29	0x3e9172fc	0.2840804
30	0xbefe53f6	-0.49673432
31	0x3e95e902	0.29279333
32	0x3e71f4c4	0.23628527
33	0xbe5221c6	-0.20520696
34	0x3e1314dd	0.14363427
35	0x3d33b483	0.04387332
36	0xbed4c95e	-0.4155988
37	0x3e9f8070	0.31152678
38	0x3db144ae	0.08655678
39	0xbf0b5c2c	-0.5443752
40	0x3e993755	0.29925027
41	0x3e216115	0.1575969
42	0xbea2546c	-0.31705034
43	0x3e828b15	0.25496736
44	0x3e0bb643	0.13643746
45	0xbeca4326	-0.39504355
46	0x3e18aa5e	0.1490874
47	0x3e3acafd	0.18241496
48	0xbe9866a4	-0.2976581
49	0x3dadc323	0.08484485
50	0x3ea8d297	0.32973167
51	0xbec46541	-0.383585
52	0x3e8f8ec8	0.2803862
53	0x3d766e44	0.06016375
54	0x3e1f20d8	0.15539873
55	0xbd323ab2	-0.043513007
56	0x3e8b089e	0.27155012
57	0xbbb26cc4	-0.005445095
58	0x3e32431f	0.17408417
59	0xbe0d08dc	-0.13772911
60	0xbc3d6023	-0.011558565
61	0x3e0b4d0a	0.13603607
62	0xbe30781f	-0.17233323
63	0xbd9a0a33	-0.075214766
64	0x3c433e3d	0.011916694
65	0x3ec44d8c	0.38340414
66	0x3e7d355f	0.2472739
67	0x3c77c053	0.015121537
68	0x3de553df	0.11197638
69	0x3e975393	0.2955595
70	0x3e745280	0.23859596
71	0xbdc12073	-0.09430017
72	0xbeaca74d	-0.3372139
73	0xbe7d03dc	-0.24708503
74	0xbe1f2c30	-0.155442
75	0xbe30ba8a	-0.17258659
76	0xbd6ffdf7	-0.05859181
77	0xbe08f5f5	-0.13375075
78	0xbe6dbcca	-0.23216549
79	0xbd1d1e9c	-0.03835927
80	0xbe21cafc	-0.15800089
81	0x3ece7468	0.40323186
82	0x3eb30593	0.3496519
83	0x3f0a74c9	0.5408445
84	0xbea616a8	-0.3243916
85	0xbe0a8a34	-0.13529283
86	0xbe23f28b	-0.16010492
87	0xbec61455	-0.38687387
88	0xbebb6eff	-0.3660812
89	0xbedd5ce2	-0.43234926
90	0x3e524e13	0.20537595
91	0x3f06e14b	0.5268752
92	0x3f1b3661	0.6062985
93	0xbcaa86a6	-0.020816159
94	0xbe2ddc40	-0.1697855
95	0xbe6a6d09	-0.22893156
96	0xbee37dd8	-0.4443195
97	0xbe9a1b0e	-0.30098766
98	0xbe3e7613	-0.18599729
99	0x3e8d49fe	0.27595514
100	0x3f05b83f	0.5223426
101	0x3ee8a359	0.45437124
102	0xbd88d0b6	-0.066804335
103	0xbc852ec1	-0.016257646
104	0x3e3da5fd	0.18520351
105	0xbec95357	-0.39321396
106	0xbeb2efb8	-0.34948516
107	0xbde6f62f	-0.112774245
108	0xbd634d46	-0.055493616
109	0x3e3e406d	0.18579264
110	0x3cb2b1e5	0.021813342
111	0x3e457f96	0.19286951
112	0x3e7afcd9	0.24510516
113	0x3e529974	0.2056635
114	0x3e2e8407	0.17042552
115	0xbd6490c0	-0.055802107
116	0x3dd8c72d	0.10584865
117	0xbd95737a	-0.07297416
118	0x3d9e2986	0.07722764
119	0x3e0078c6	0.12546071
120	0x3d852f20	0.06503129
121	0x3de7e9d6	0.113238975
122	0xbe162343	-0.14661889
123	0x3dc50bc4	0.09621385
124	0x3dc85bc1	0.09783126
125	0x3d33fb89	0.043941054
126	0x3e82d53b	0.25553307
127	0xbd88567b	-0.0665712
128	0x3e78f434	0.24311906
129	0x3e67d077	0.22638117
130	0x3cad7e16	0.021178287
131	0x3e77a78d	0.2418501
132	0xbe14efc1	-0.14544584
133	0xbde4feb9	-0.11181397
134	0x3cff30b7	0.031151159
135	0xbca33aae	-0.019925442
136	0x3e256176	0.1615046
137	0x3d213d85	0.03936531
138	0xbde37edd	-0.111081816
139	0xbcbc5021	-0.022987427
140	0x3e420ce1	0.18950225
141	0xbe337056	-0.17523322
142	0x3e60a8b2	0.21939352
143	0xbcf6f4cd	-0.030146027
144	0x3d40eeeb	0.04710285
145	0x3d088af4	0.03333564
146	0x3e7c9115	0.2466472
147	0xbc45b2fd	-0.0120666
148	0x3e874847	0.2642233
149	0x3e5c4a22	0.21512654
150	0x3e603365	0.21894605
151	0x3e790961	0.24319984
152	0x3e301ca9	0.17198433
153	0xbd34b931	-0.044121925
154	0xbe9643b2	-0.29348522
155	0xbd6484b6	-0.055790626
156	0xbe293806	-0.16525277
157	0xbe5c1fa8	-0.21496451
158	0xbe401a86	-0.18760118
159	0xbe5f95ee	-0.21834537
160	0xbe5e5515	-0.21712144
161	0xbe8496c1	-0.25896266
162	0x3e00bff4	0.12573224
163	0xbcbbc864	-0.022922702
164	0x3dac8fde	0.08425878
165	0x3db21422	0.08695246
166	0xbd648e76	-0.055799924
167	0x3e48f7b9	0.19625749
168	0x3e79724b	0.24360006
169	0x3e23692f	0.15958093
170	0x3e122c90	0.14274812
171	0xbe3b4969	-0.18289723
172	0xbdaa6245	-0.08319525
173	0xbba0b289	-0.0049040955
174	0xbd73a969	-0.059487734
175	0x3e1f7d59	0.1557516
176	0xbd9476dc	-0.07249233
177	0x3d9968b1	0.074906714
178	0x3e004f77	0.12530313
179	0x3e1611aa	0.14655176
180	0x3dc0ea67	0.09419709
181	0x3e77ab7c	0.2418651
182	0x3d8a02b8	0.067388
183	0xbcbc2f0d	-0.022971654
184	0x3e93b52c	0.2884916
185	0x3d8f726d	0.07004247
186	0xbd2c1e0c	-0.042020842
187	0x3ba44877	0.0050135213
188	0x3e8ba665	0.27275386
189	0xbe4595aa	-0.19295374
190	0xbd6b12f3	-0.05739112
191	0xbe5416ba	-0.20711794
192	0x3d3415c8	0.043966085
193	0xbd6b9ead	-0.057524372
194	0xbd8a735d	-0.06760285
195	0x3de0db7e	0.10979365
196	0xbe08201b	-0.13293497
197	0x3da7ac18	0.08187121
198	0xbcaa07c9	-0.020755665
199	0xbe29045d	-0.1650557
200	0xbde7117f	-0.11282634
201	0xbdd9646a	-0.106148556
202	0xbe4cfe8e	-0.2001898
203	0xbe7b1b5d	-0.24522157
204	0xbe11c40d	-0.14234944
205	0xbd4299fa	-0.047510125
206	0xbe38abac	-0.18034238
207	0xbe8b5bba	-0.2721842
208	0xbe3f1ea9	-0.1866404
209	0x3ca795e5	0.020457217
210	0xbe35bd99	-0.17748107
211	0xbe1f90d2	-0.15582588
212	0x3d2e20c9	0.042511735
213	0xbe5dbcaf	-0.21654008
214	0xbe1371c5	-0.14398868
215	0x3d0233bd	0.031787623
216	0xbde38cc2	-0.11110832
217	0xbe319261	-0.17340995
218	0xbe6f5772	-0.23373201
219	0xbdf8ce7f	-0.12148761
220	0xbdbd9b48	-0.09258133
221	0xbe5970de	-0.21234462
222	0x3d8412a1	0.06448866
223	0x3de3d69b	0.11124917
224	0x3dca319e	0.09872745
225	0x3ecb902e	0.39758438
226	0x3ece9f98	0.40356135
227	0x3db026fe	0.08601187
228	0x3e5acc1c	0.21366924
229	0x3e89f5e5	0.26945415
230	0x3ece0a32	0.40242153
231	0x3dcb84eb	0.099374615
232	0x3db61b05	0.08891872
233	0x3e1e1bf4	0.15440351
234	0xbe852036	-0.26001137
235	0x3ce5bc0b	0.028043767
236	0xbd6b09f7	-0.05738255
237	0xbe94fea3	-0.29100522
238	0xbe76a0fe	-0.24084851
239	0x3c9926f8	0.01869534
240	0xbea0e1e3	-0.31422338
241	0xbea47582	-0.321209
242	0x3d6d2fd3	0.057906937
243	0xbc4bc2b0	-0.012436554
244	0x3e985139	0.29749468
245	0x3e81e658	0.2537105
246	0x3e96c74b	0.29448923
247	0x3d12cd30	0.035840213
248	0x3ec9e5ce	0.3943314
249	0x3d7df7bf	0.062003847
250	0xbcd0e56d	-0.025500024
251	0x3eb28c15	0.348725
252	0xbeb6cd6e	-0.35703605
253	0xbdfc69b2	-0.12324847
254	0xbe2ad8da	-0.16684285
255	0x3d117633	0.035513114

conv1.bias f4 [32]
0	0xbe9cda70	-0.30635405
1	0xbd6e382e	-0.058159046
2	0x3f0c1721	0.5472279
3	0xbe8aa306	-0.27077502
4	0x3ec14273	0.3774601
5	0x3f098e52	0.5373279
6	0x3ee46577	0.44608662
7	0xbe4b445e	-0.19850299
8	0x3e9c96f9	0.30583933
9	0x3edfe0a0	0.43726063
10	0x3f235f3c	0.6381719
11	0x3ee7e7a6	0.4529392
12	0xbd8a4b15	-0.06752602
13	0x3d89283f	0.066971295
14	0x3ec51a4a	0.3849662
15	0x3db690dd	0.08914349
16	0xbf81ddb1	-1.014578
17	0x3f5612d3	0.83622473
18	0xbe184f6d	-0.14874049
19	0x3dfe9365	0.12430457
20	0x3ee3e696	0.4451186
21	0xbde3b138	-0.11117786
22	0x3f21d5fd	0.63217145
23	0x3f006c61	0.50165373
24	0xbe8c143c	-0.27359188
25	0xbe6ccf97	-0.23126064
26	0xbec120ca	-0.3772033
27	0x3dd77835	0.105209745
28	0xbd5a7c36	-0.053341113
29	0x3e03387a	0.12814513
30	0x3f71e267	0.9448609
31	0xbf0cfaba	-0.5507008

conv2.weight f4 [64, 32, 3, 3]
0	0x3c59dbeb	0.013297061
1	0xbc908a38	-0.017644033
2	0xbd5ce72d	-0.053931404
3	0xbd0adf3d	-0.033904303
4	0xbd8d5631	-0.06901205
5	0x3cc7699e	0.024342354
6	0x3d31fe45	0.04345538
7	0xbd37332a	-0.04472653
8	0x3d2b3857	0.041801777
9	0x3ec570e6	0.38562697
10	0xbddd8042	-0.10815479
11	0x3f117f25	0.5683463
12	0x3e6bd081	0.23028757
13	0xbe99f97b	-0.3007315
14	0x3ef9b160	0.4876814
15	0x3e695cef	0.22789358
16	0xbe86fd22	-0.26365
17	0x3ee111ce	0.43958896
18	0xbc22b32a	-0.009930411
19	0xbce6f0e7	-0.028191043
20	0x3c01bdd8	0.007918797
21	0xbd7d0a64	-0.061777487
22	0xbde6989e	-0.11259578
23	0xbe16c4c5	-0.14723499
24	0xbde393c5	-0.11112169
25	0xbda6fa94	-0.08153263
26	0xbdafdde4	-0.08587244
27	0x3e20db52	0.15708664
28	0x3db3c7a3	0.08778312
29	0x3e06dc7b	0.13170044
30	0x3e1aa2e2	0.15101197
31	0x3da41eb2	0.08013667
32	0x3df2c9f4	0.11854926
33	0x3dc65779	0.09684653
34	0x3da40897	0.08009451
35	0x3deae701	0.11469842
36	0xbdef04bc	-0.11670825
37	0xbe6cf14f	-0.23138927
38	0xbe573a45	-0.21018322
39	0xbce695ad	-0.028147543
40	0xbd944426	-0.07239561
41	0xbd670dd8	-0.056409687
42	0x3c41990b	0.011816273
43	0x3cab621a	0.020920802
44	0xbc2a21b0	-0.010384008
45	0x3d4a972e	0.049460582
46	0xbe60644a	-0.21913257
47	0x3ce62349	0.028092997
48	0xbda80622	-0.08204295
49	0xbea4db47	-0.32198545
50	0xbd58dd32	-0.052945323
51	0xbd7016b5	-0.058615405
52	0xbe873d77	-0.2641408
53	0xbcf1f1b5	-0.0295342
54	0xbe225aab	-0.158549
55	0xbe44b7c2	-0.19210723
56	0xbe43fbf2	-0.19139078
57	0xbd9c4f48	-0.07632309
58	0xbd89ee54	-0.067349106
59	0xbd95521b	-0.07291051
60	0xbcbcbd7a	-0.023039568
61	0x3bcbce30	0.006219648
62	0x3d04e85e	0.032448165
63	0x3ddc3bb7	0.10753577
64	0xbb5c833c	-0.0033647558
65	0x3d9ebaf5	0.07750503
66	0xbdbc2a04	-0.09187701
67	0xbd6dcd70	-0.05805725
68	0xbcaddcf9	-0.021223532
69	0xbd7a25a8	-0.061071068
70	0xbd0db9d6	-0.034601055
71	0xbdb678ba	-0.089097455
72	0x3c1310de	0.008976189
73	0xbdeb44d0	-0.11487734
74	0xbd0e4e34	-0.03474255
75	0xbdc5f5a0	-0.0966599
76	0xbe4efc31	-0.20213391
77	0xbdc2632c	-0.09491572
78	0xbd590fa7	-0.052993443
79	0xbe1f439e	-0.15553138
80	0xbb8b245e	-0.0042462787
81	0x3e8eca72	0.2788883
82	0x3e23a88a	0.15982261
83	0x3e80a64d	0.25126877
84	0x3e5a4a3c	0.2131738
85	0x3e062137	0.13098608
86	0x3e32bd7d	0.17455097
87	0x3e224b45	0.15849026
88	0xbc08b7b4	-0.0083445795
89	0x3dd76e90	0.10519135
90	0x3eae9603	0.34098825
91	0x3e9275e0	0.28605556
92	0x3e8f2e07	0.27964804
93	0x3e2e9ee4	0.170528
94	0x3df2809f	0.11840939
95	0x3de4c561	0.111704595
96	0x3d843bd1	0.064567216
97	0x3cef7af4	0.029233433
98	0xbb2c645c	-0.0026304936
99	0x3ea28d1f	0.31748292
100	0x3e0988b6	0.13431057
101	0x3ec11c6a	0.3771699
102	0x3d16a12a	0.03677479
103	0xbe3f8b82	-0.18705562
104	0x3e43f4bf	0.19136332
105	0x3d4db347	0.0502198
106	0xbe592523	-0.21205573
107	0x3de469df	0.11153006
108	0x3da8ea87	0.082478575
109	0xbe9267aa	-0.28594714
110	0x3e4210ea	0.18951765
111	0x3d8ca149	0.068667
112	0xbe9065f3	-0.2820278
113	0x3e0e52cf	0.13898776
114	0x3d9ae02c	0.07562289
115	0xbe9b3689	-0.30315045
116	0x3e319b70	0.17344451
117	0x3f105793	0.5638363
118	0x3f1e356f	0.61800283
119	0x3f1d3e20	0.6142292
120	0x3e42d531	0.19026639
121	0x3e760021	0.24023487
122	0x3e858a79	0.2608221
123	0x3e8f6033	0.28003082
124	0x3ea722b9	0.3264368
125	0x3e68ede8	0.22747004
126	0xbcb61182	-0.022225145
127	0xbe3c2c66	-0.18376312
128	0xbd96f183	-0.073702835
129	0xbe90a182	-0.2824822
130	0xbec7c937	-0.39020702
131	0xbe8e06fa	-0.27739698
132	0xbe52abe0	-0.20573378
133	0xbe922a9c	-0.28548133
134	0xbe83f2f3	-0.25771293
135	0x3e8faa5e	0.28059667
136	0x3e813215	0.25233522
137	0x3e43e216	0.19129214
138	0x3c3d72b1	0.011562989
139	0x3de7629a	0.11298104
140	0xbc62cd2e	-0.013842864
141	0xbd332bc0	-0.043742895
142	0x3c2f588f	0.010702266
143	0xbe0a9a58	-0.1353544
144	0xbea11063	-0.31457815
145	0xbeb044f6	-0.34427613
146	0xbe4d8315	-0.20069535
147	0xbe985ce5	-0.29758373
148	0xbe68fe2c	-0.22753209
149	0xbe05dbd2	-0.13072136
150	0xbe4dab35	-0.20084842
151	0xbe1da790	-0.15395951
152	0xbd9ef67b	-0.07761856
153	0x3decc717	0.11561411
154	0x3e134520	0.14381838
155	0x3d3a1387	0.04542878
156	0xbc0e3001	-0.008678437
157	0x3ce7ec0b	0.028310796
158	0xbdfb5c20	-0.12273431
159	0x3d69f3cb	0.057117265
160	0x3d02a99a	0.031900026
161	0xbda0cfd1	-0.07852138
162	0x3e1a99d8	0.15097749
163	0x3ebda66f	0.3704104
164	0xbe00606d	-0.12536784
165	0x3b55e881	0.0032639804
166	0x3e462efa	0.19353858
167	0xbe90d03c	-0.2828387
168	0xbceca0ad	-0.02888521
169	0x3e986777	0.29766437
170	0xbe65ffb3	-0.22460823
171	0xbd564d3c	-0.05231975
172	0xbdbae14e	-0.09125005
173	0xbcb39234	-0.021920301
174	0xbd097c3a	-0.033565737
175	0xbd9601d0	-0.073245645
176	0x3c8b1f00	0.016982555
177	0x3d2696be	0.040671103
178	0xbb933468	-0.0044923313
179	0x3bf3ace3	0.007436381
180	0x3e3f3ef2	0.18676355
181	0x3e4d42b0	0.2004497
182	0x3d94cd52	0.07265724
183	0xbaeb4626	-0.0017949983
184	0x3dbce5db	0.09223529
185	0xbda182f0	-0.078863025
186	0xbd2c55d5	-0.042074043
187	0x3d8b6a35	0.06807367
188	0xbe083a4c	-0.13303488
189	0xbda2a0f2	-0.07940854
190	0xbe09e441	-0.13465978
191	0xbdfa4896	-0.12220876
192	0x3c9e6d4f	0.019339232
193	0xbc93e4a8	-0.018053368
194	0x3cafc001	0.02145386
195	0x3d85f022	0.06539942
196	0x3c73461c	0.014848258
197	0x3cfefb63	0.03112573
198	0x3dc2b79c	0.09507677
199	0xbd447f64	-0.04797305
200	0x3e26a4ed	0.16273852
201	0x3d76f7c9	0.0602949
202	0xbdcfad60	-0.101404905
203	0x3e3d808a	0.18506065
204	0x3c9e6db8	0.019339427
205	0xbdd8ceb6	-0.10586302
206	0x3dea3020	0.1143496
207	0xbcf77068	-0.030204967
208	0x3d2843d5	0.041080315
209	0xbe88dda3	-0.26731595
210	0xbe286feb	-0.16448943
211	0xbda7e9c6	-0.081988856
212	0xbeb0712e	-0.3446135
213	0xbdece3f2	-0.115669146
214	0xbccfae30	-0.025351614
215	0xbea6b174	-0.3255726
216	0x3edac4bf	0.4272823
217	0x3ebdba93	0.37056407
218	0x3f0b386a	0.54382956
219	0x3e418daa	0.18901697
220	0x3e043b99	0.1291336
221	0x3edd0dc7	0.43174574
222	0x3e748b6a	0.23881307
223	0x3e252e22	0.1613088
224	0x3eb640af	0.35596225
225	0xbe42760d	-0.18990345
226	0xbe1243ff	-0.14283751
227	0xbe2c40e9	-0.16821636
228	0xbd6268cf	-0.055275735
229	0xbce5f8a7	-0.028072668
230	0xbd58a995	-0.0528961
231	0xbd8232eb	-0.06357368
232	0xbcee6f60	-0.029105842
233	0xbda986d1	-0.08277667
234	0x3e34dae1	0.1766162
235	0x3e04a1a6	0.12952289
236	0x3e066dd3	0.13127832
237	0xbd22953c	-0.039693102
238	0xbdc242f8	-0.094854295
239	0xbe0b9bff	-0.13633727
240	0xbe15dacf	-0.1463425
241	0xbe417a26	-0.18894252
242	0xbe36c05f	-0.17846821
243	0xbcca6df1	-0.024710627
244	0xbde38e99	-0.11111183
245	0xbd2e45cc	-0.042547032
246	0xbd3ba1f5	-0.04580875
247	0xbd7d5bf9	-0.06185529
248	0xbb87cd45	-0.004144343
249	0x3b0183f7	0.0019762495
250	0xbd9db375	-0.07700244
251	0x3c69de71	0.014274226
252	0x3e48f840	0.1962595
253	0x3ec11213	0.37709102
254	0x3e44e963	0.19229655
255	0xbd14732f	-0.03624266

conv2.bias f4 [64]
0	0xbe7ded45	-0.24797542
1	0x3e8e5b1e	0.27803892
2	0xbda77151	-0.0817591
3	0xa814bd2f	-8.256673e-15
4	0xbe2cd779	-0.16879071
5	0x3d674e63	0.05647124
6	0x3e8824d0	0.26590586
7	0x3dd54bee	0.10414873
8	0x3eae55f4	0.34049952
9	0xbdf21282	-0.11819936
10	0xbc8ab2e6	-0.016931009
11	0xbe73ba94	-0.23801643
12	0xbe00b262	-0.12568048
13	0xb7125fa4	-8.724546e-06
14	0xbc90bb7d	-0.017667526
15	0xbdd7c298	-0.10535163
16	0x3e8cd907	0.2750933
17	0x3cbbf15a	0.022942234
18	0xbaeda69c	-0.0018131319
19	0x3e1a88bc	0.15091223
20	0xbcab00de	-0.020874437
21	0xbcb9ef22	-0.022697035
22	0xbe522bdd	-0.20524545
23	0xa0479a20	-1.6906951e-19
24	0xb019fa6b	-5.601694e-10
25	0xbe9b72b9	-0.30360964
26	0x3d489058	0.048965782
27	0x3e62b979	0.22141065
28	0xbeb9b2db	-0.36269268
29	0x3d2e4841	0.042549375
30	0xbc72a4bd	-0.0148097845
31	0x3e27d92d	0.1639144
32	0xbf059736	-0.52183855
33	0x3f2f3042	0.6843301
34	0x3ec0d12b	0.37659582
35	0x3edc25b5	0.42997518
36	0xbe92df85	-0.28686157
37	0xbdbf6010	-0.09344494
38	0x3e4a0457	0.19728218
39	0x3f0c6204	0.5483706
40	0xbbe6e659	-0.0070465025
41	0xbc5fddf1	-0.013663755
42	0x3e0b786e	0.13620159
43	0x3e806a45	0.25081077
44	0x3eaa538c	0.33266866
45	0xb7e6e23e	-2.7523489e-05
46	0x3e3a2fb7	0.18182264
47	0xbc9abb65	-0.018888185
48	0x3ea6c457	0.3257167
49	0xb2e2d183	-2.6405138e-08
50	0xa9175c27	-3.3608665e-14
51	0x3e080766	0.13284072
52	0xbe018978	-0.12650096
53	0xa937fae7	-4.0851786e-14
54	0x3dc2b1a7	0.09506541
55	0xbe459a7b	-0.19297211
56	0xaab171c7	-3.1520465e-13
57	0x3dc4fe51	0.096188195
58	0xbd757496	-0.05992564
59	0xbed839fc	-0.4223174
60	0xbe923a68	-0.28560185
61	0xbf18403a	-0.59473
62	0xbd9ac80a	-0.07557686
63	0x3dba7d7a	0.09105964

conv3.weight f4 [128, 64, 3, 3]
0	0x3d1b47a7	0.03791013
1	0x3e18f657	0.14937721
2	0x3d9f1f4a	0.0776964
3	0x3d71e725	0.059058327
4	0xbd48e04c	-0.04904203
5	0xbc89e533	-0.016832924
6	0xbd0cc19b	-0.034364324
7	0xbebca859	-0.3684719
8	0xbe40c571	-0.18825318
9	0xbe67813f	-0.22607897
10	0xbe5c5b1c	-0.2151913
11	0xbe50af7b	-0.2037944
12	0xbe608ddc	-0.21929115
13	0xbe628b80	-0.22123528
14	0xbe7ccc01	-0.24687196
15	0xbe172e62	-0.14763787
16	0xbe34cc4b	-0.17656057
17	0xbe894f6c	-0.26818407
18	0xbe5dd9a2	-0.21665052
19	0xbdc4f130	-0.09616315
20	0xbcc475b3	-0.023981905
21	0xbe98cad4	-0.29842246
22	0xbeb032cf	-0.34413764
23	0xbdc5733c	-0.0964112
24	0xbeacc12e	-0.33741134
25	0xbec91a6f	-0.3927798
26	0xbdfe2cd0	-0.12410891
27	0x00423f11	6.083767e-39
28	0x00377b3d	5.095162e-39
29	0x0047a024	6.577768e-39
30	0x0008ea8b	8.18822e-40
31	0x001c9c46	2.627454e-39
32	0x0003a2aa	3.3386e-40
33	0x0005bca4	5.26849e-40
34	0x00237bd9	3.25867e-39
35	0x0025ea97	3.482068e-39
36	0xbe89c562	-0.26908404
37	0xbd589f05	-0.052886028
38	0x3ce845b0	0.028353542
39	0xbeb92e03	-0.36167917
40	0xbe319996	-0.17343745
41	0x3d2c3008	0.042037994
42	0xbe92c84c	-0.2866844
43	0xbe72aa06	-0.23697671
44	0x3d16095b	0.036630016
45	0xbf189fb6	-0.596187
46	0xbefba2f6	-0.49147767
47	0xbefb4b9a	-0.49081117
48	0xbf1c806b	-0.6113345
49	0xbf219d1a	-0.6313034
50	0xbf206d90	-0.6266718
51	0xbe45cdf0	-0.1931684
52	0xbe52aa54	-0.20572788
53	0xbe4dd694	-0.20101386
54	0xbb91f354	-0.004454056
55	0xbcad6e10	-0.021170646
56	0xbc85f16c	-0.01635047
57	0xbd020ba8	-0.031749398
58	0xbc4fd4a5	-0.012684976
59	0xbc828e18	-0.015936896
60	0x3d02d042	0.03193689
61	0x3c9fbf28	0.01950033
62	0x3d20c71d	0.03925239
63	0xbe16645f	-0.14686726
64	0xbe91cec6	-0.28478068
65	0xbe9ac1cb	-0.30225977
66	0xbe484a37	-0.1955956
67	0xbeb2d911	-0.34931234
68	0xbeae4a2b	-0.3404096
69	0xbe26914a	-0.16266361
70	0xbe854eab	-0.2603658
71	0xbe8467fe	-0.2586059
72	0x3d187ccf	0.0372284
73	0xbe9c8be5	-0.3057548
74	0xbdcd837d	-0.10034845
75	0xbd8f5ce9	-0.07000143
76	0xbe2affab	-0.16699092
77	0xbd89842c	-0.06714663
78	0xbdc42a44	-0.09578374
79	0x3cf89ccf	0.03034821
80	0xbc907ad5	-0.017636696
81	0xbe564ae2	-0.20927003
82	0xbdb79b95	-0.08965222
83	0xbd9c81a7	-0.07641917
84	0xbe279d1f	-0.1636853
85	0xbe92d1cd	-0.2867569
86	0xbe1a446f	-0.15065168
87	0xbe587627	-0.21138822
88	0xbea7512f	-0.32679126
89	0xbe906da0	-0.28208637
90	0xbd867708	-0.06565672
91	0xbc99ef55	-0.01879088
92	0xbbebcad5	-0.0071958103
93	0xbd831888	-0.06401163
94	0x3c31072d	0.0108049335
95	0xbc2fbc90	-0.010726109
96	0xbb1d8e53	-0.002404113
97	0x3d03b55c	0.03215538
98	0x3cae8e44	0.021308072
99	0xbdf21dc2	-0.11822082
100	0xbe0adbfb	-0.13560478
101	0xbe0ea52e	-0.13930199
102	0xbd84ef21	-0.06490923
103	0xbd9e8708	-0.07740599
104	0xbd49dbe7	-0.04928198
105	0x3d246bbd	0.04014181
106	0x3cb6c7c6	0.022312056
107	0x3d5ac1c6	0.053407453
108	0x3db540cd	0.088502504
109	0x3c2b739a	0.010464573
110	0x3d97b029	0.07406647
111	0x3dd4448f	0.10364639
112	0xbd2f5a7f	-0.042810913
113	0xbcb332b0	-0.021874756
114	0x3dcac9b6	0.099017546
115	0xbd637b0f	-0.05553728
116	0xbd8245c9	-0.06360967
117	0x32b2380d	2.0747416e-08
118	0x3192ad11	4.2688346e-09
119	0xb0e53c8e	-1.6679154e-09
120	0xb23670d3	-1.06194475e-08
121	0xb334fd88	-4.21401e-08
122	0xb1330175	-2.6048756e-09
123	0x320ebfeb	8.309125e-09
124	0x3135b46b	2.6441522e-09
125	0x320f1206	8.327794e-09
126	0x3e48b991	0.19602038
127	0x3e4a10d4	0.19732982
128	0x3de78480	0.11304569
129	0x3e5d39eb	0.21604125
130	0x3c78972c	0.015172761
131	0xbd2865db	-0.041112762
132	0x3e3ae2af	0.18250535
133	0xbdc58c16	-0.0964586
134	0xbe1b2023	-0.15148978
135	0xbd8544d8	-0.065072715
136	0xbeaee1b6	-0.3415658
137	0xbe8cac9a	-0.27475435
138	0xbdf3db99	-0.11907119
139	0xbeb4fbac	-0.3534826
140	0xbe957be1	-0.29196075
141	0x3befea56	0.007321636
142	0xbe89d354	-0.26919043
143	0xbe81d748	-0.2535956
144	0x3d6eca89	0.05829862
145	0xbc820dd2	-0.01587573
146	0xbcedeea0	-0.02904445
147	0x3ce05e1a	0.027388621
148	0x3b478016	0.0030441335
149	0x3c34ba91	0.011030809
150	0xbdf6d79c	-0.12052843
151	0xbd7029ec	-0.05863373
152	0xbe01eaa7	-0.12687169
153	0x3d411acb	0.047144692
154	0x3a4a718d	0.0007722609
155	0x3ce6d445	0.02817739
156	0x3d19e62c	0.037573025
157	0x3cd0285c	0.02540987
158	0x3d816ba8	0.06319362
159	0x3e07a846	0.13247785
160	0x3e1d438e	0.15357801
161	0x3e9141b2	0.28370434
162	0xbc9117fd	-0.017711634
163	0xbc8e43e8	-0.017366365
164	0xbc734bee	-0.014849646
165	0xbc8d24a3	-0.017229384
166	0xbc864026	-0.01638801
167	0xbc54332e	-0.012951655
168	0xbc87a9e9	-0.016560512
169	0xbc7dc5fd	-0.015489099
170	0xbc3a7ac2	-0.011381807
171	0x3e817d1a	0.25290757
172	0x3d6fac10	0.0585137
173	0x3e8b1b8f	0.27169463
174	0x3e38ee7a	0.18059722
175	0x3e9850fb	0.29749283
176	0x3ec21416	0.3790595
177	0x3e94a8d1	0.29035047
178	0x3f026ad4	0.50944257
179	0x3f0dfd6d	0.5546482
180	0x3c52a02e	0.012855573
181	0x3c508aaa	0.012728373
182	0x3c21468c	0.00984348
183	0x3c5c22a0	0.01343599
184	0x3c584dbd	0.013202128
185	0x3c037441	0.008023323
186	0x3c2d2a18	0.010569118
187	0x3c0cc0f8	0.008590929
188	0x3ba072df	0.004896506
189	0x3c1060f9	0.008812183
190	0x3bffea32	0.0078099007
191	0x3be34225	0.0069353753
192	0x3c173314	0.009228487
193	0x3c06c14b	0.008224796
194	0x3bf37f45	0.007430943
195	0x3c0a99ce	0.008459521
196	0x3c091922	0.008367809
197	0x3c024743	0.00795156
198	0xbdc47d3f	-0.09594201
199	0xbda126e9	-0.0786875
200	0xbe082c9c	-0.13298267
201	0xbd7d25d3	-0.06180365
202	0xbc35d8bb	-0.011099036
203	0xbd962a9a	-0.07332344
204	0xbc2cf0ea	-0.010555485
205	0x3d02e0ed	0.031952787
206	0xbcc69e3d	-0.024245376
207	0x1731f403	5.749977e-25
208	0x1a0ad55d	2.8710085e-23
209	0x19989b6b	1.5779204e-23
210	0x192b4e99	8.8563655e-24
211	0x1c13acd0	4.8861575e-22
212	0x1b832de1	2.170178e-22
213	0x193f90a7	9.903681e-24
214	0x1be07d47	3.713865e-22
215	0x1b652365	1.8953873e-22
216	0x2925ed72	3.684331e-14
217	0x2a0b775a	1.2387088e-13
218	0x29ad75a5	7.7031514e-14
219	0x297f093e	5.662939e-14
220	0x281bdf6c	8.652675e-15
221	0xaa1213a9	-1.2974226e-13
222	0x29397edf	4.1188295e-14
223	0xaa9413d8	-2.630385e-13
224	0xab282199	-5.9732216e-13
225	0x3e37e968	0.17960131
226	0x3e945b61	0.28975967
227	0x3e74f129	0.2392012
228	0x3e124b2e	0.14286491
229	0x3dba2a29	0.09090073
230	0x3e241b59	0.16026057
231	0x3d383e97	0.044981565
232	0xbd6981e1	-0.057008628
233	0x3d422405	0.047397632
234	0x3c41a4cf	0.011819079
235	0x3e08d834	0.13363725
236	0x3d8f106b	0.06985553
237	0x3d84a369	0.064764805
238	0x3df07f12	0.11742987
239	0x3dc33554	0.09531656
240	0x3db9ff24	0.09081867
241	0x3c4e8418	0.012604736
242	0x3d807731	0.06272734
243	0x3c837bac	0.016050182
244	0xbea12a9a	-0.31477815
245	0xbe0eb4d7	-0.13936172
246	0xbd75d856	-0.060020767
247	0xbef1e7ac	-0.47247064
248	0xbe953535	-0.29142156
249	0x3dacd0df	0.084382765
250	0xbe8aed4e	-0.27134174
251	0xbe760f5f	-0.24029301
252	0xbe15000f	-0.14550804
253	0xbdf33b3e	-0.11876534
254	0xbde3f921	-0.11131502
255	0xbdd56c10	-0.10421002

conv3.bias f4 [128]
0	0xbd4c5bed	-0.049892355
1	0x8023b1ad	-3.27798e-39
2	0xba9be83a	-0.001189477
3	0xbe13f712	-0.14449719
4	0xae156eba	-3.3977023e-11
5	0x3d321793	0.043479513
6	0x3082c3ea	9.514427e-10
7	0xbb76f66a	-0.0037683495
8	0xbbae0249	-0.005310331
9	0xbda099d7	-0.078418426
10	0xbd37f5f6	-0.0449123
11	0x3cfc07fc	0.030765526
12	0x3db04ec5	0.08608774
13	0x3e089ec9	0.13341822
14	0xbe0d0c0e	-0.1377413
15	0x9819cd86	-1.987855e-24
16	0x3d8fdaf8	0.07024187
17	0xb0d0eb31	-1.5200837e-09
18	0xbdddff27	-0.10839682
19	0xbc321d79	-0.010871285
20	0x3e419033	0.18902664
21	0x3d7435d6	0.059621654
22	0xbd2679a6	-0.040643357
23	0xbdb78832	-0.08961524
24	0x00017cf6	1.36663e-40
25	0xbd0085b0	-0.031377494
26	0xb376a3e9	-5.7425414e-08
27	0xb5c92bec	-1.498845e-06
28	0xbc8096d7	-0.015696926
29	0x800be8a9	-1.093653e-39
30	0xbc497ddc	-0.012298074
31	0xb5299a47	-6.318191e-07
32	0xbce901f6	-0.028443318
33	0x3d5a2d95	0.053266127
34	0x3da2eb0d	0.07954989
35	0x3d05e231	0.032686416
36	0x3d822251	0.063542016
37	0x3da580b9	0.080811925
38	0xbcdd379e	-0.02700406
39	0xb4ca8b69	-3.7726866e-07
40	0x22cadc79	5.4985644e-18
41	0xb34fc4b1	-4.8374833e-08
42	0x802a65c5	-3.893599e-39
43	0xbce3e09b	-0.027817061
44	0xbc8d0d26	-0.017218184
45	0x3cded2bf	0.027200101
46	0x3cc87a88	0.02447249
47	0xbe16e301	-0.14735033
48	0x0329ac0f	4.986215e-37
49	0xbb95eb33	-0.004575157
50	0x3d25808c	0.040405795
51	0x801d041a	-2.664701e-39
52	0xbca79f2d	-0.020461643
53	0x80415fe1	-6.003702e-39
54	0x95239781	-3.3037103e-26
55	0xbd8112c9	-0.06302411
56	0x3e01ffaa	0.12695184
57	0xbd92b2e0	-0.07163024
58	0xbd58cf75	-0.05293222
59	0xbb7257a0	-0.0036978498
60	0xbd8c791a	-0.06859036
61	0x3da0ec52	0.078575745
62	0xbce9ca83	-0.028538948
63	0x3e34ea67	0.17667542
64	0xbd7f8e87	-0.062391784
65	0x3d673e27	0.056455757
66	0xb780666c	-1.5306483e-05
67	0x3d26d93a	0.040734507
68	0x3d4cb781	0.04997969
69	0x801b62fb	-2.515066e-39
70	0x800955b5	-8.57265e-40
71	0x0b1d027c	3.023897e-32
72	0xa5fcda0a	-4.386278e-16
73	0x3db7ff1d	0.08984206
74	0x3d40b0a4	0.047043458
75	0xb5d2a852	-1.5695207e-06
76	0xbb8d61fc	-0.004314659
77	0xb489956a	-2.5626952e-07
78	0x8007f5de	-7.31049e-40
79	0x3e07e8ef	0.13272451
80	0x3dabd208	0.0838967
81	0x83a63064	-9.767713e-37
82	0x3cae4d4e	0.021277096
83	0x3b19b8f1	0.002345618
84	0xb65b09b1	-3.2639184e-06
85	0x3cf52862	0.029926483
86	0xbc20a071	-0.009803877
87	0xaabc8327	-3.3486514e-13
88	0x98f3dfdc	-6.3040068e-24
89	0x93bb00e0	-4.72063e-27
90	0xbb28b3a3	-0.0025741837
91	0x9e28342d	-8.904636e-21
92	0xbd0c1cd9	-0.0342072
93	0xb7595b19	-1.2955418e-05
94	0x3d3d8a92	0.04627473
95	0xb3317b5f	-4.132323e-08
96	0xbb81a0be	-0.0039559295
97	0x3d131ea9	0.03591791
98	0x3e27ad35	0.16374667
99	0x3e2c1c7c	0.16807741
100	0x3e0fb625	0.14034326
101	0x3cb2afdb	0.02181237
102	0xbbf5455c	-0.007485075
103	0xbc4e44ed	-0.012589675
104	0x3e0e5f65	0.13903578
105	0xbc2199b0	-0.009863302
106	0x3e04f2a0	0.12983179
107	0xbd373136	-0.044724666
108	0xb78cdca5	-1.6792046e-05
109	0x91e121a6	-3.5519478e-28
110	0xaf598714	-1.9784024e-10
111	0x3dded067	0.10879593
112	0x00248124	3.352405e-39
113	0xbdc28833	-0.09498634
114	0x3caf80de	0.021423753
115	0xbdb1c2f7	-0.08679765
116	0xbd842645	-0.06452612
117	0xbd4cf65b	-0.05003963
118	0xbc908aa4	-0.017644234
119	0x3d0a25d8	0.033727497
120	0xbde6a465	-0.112618245
121	0x962f359a	-1.4153301e-25
122	0xbde8980f	-0.11357128
123	0xbd8fc25a	-0.070194915
124	0x1e8c8ff0	1.4882608e-20
125	0xbd4334a4	-0.047657624
126	0xa79656a1	-4.1727287e-15
127	0x001c4054	2.59447e-39

fc.weight f4 [370, 128]
0	0xbd3c50e4	-0.04597558
1	0xb7902a66	-1.7185881e-05
2	0xbd779d80	-0.060452938
3	0xbf2d608d	-0.6772545
4	0x3bf22865	0.0073900693
5	0xbebe7957	-0.3720195
6	0xba1afadc	-0.0005912015
7	0xbd97420c	-0.07385644
8	0xbd9ae8bc	-0.07563922
9	0xbecdbb05	-0.40181747
10	0xbecfc2a2	-0.4057818
11	0xbe1fa5bb	-0.15590565
12	0xbcfbbfa4	-0.03073103
13	0xbe9618c7	-0.2931578
14	0xbf4ff8c8	-0.81238985
15	0x3b8f048a	0.004364555
16	0xbdaa653c	-0.0832009
17	0xbc92346a	-0.017847259
18	0x3d9d18f2	0.076707736
19	0x3cb43e46	0.02200235
20	0xbe818908	-0.2529986
21	0x3da3104d	0.079620935
22	0xbe7e7952	-0.24850968
23	0xbc818139	-0.015808688
24	0x3c00f982	0.007871987
25	0xbed21809	-0.41033962
26	0xbcf8cf0b	-0.030372163
27	0xbd5d024b	-0.053957265
28	0x3c9ac21b	0.018891385
29	0xb0a26b75	-1.1817592e-09
30	0xbd4db97e	-0.050225727
31	0xbc8f826f	-0.01751825
32	0xbd88eff7	-0.06686395
33	0xbe3c5ad6	-0.18394026
34	0x3daab2cc	0.08334884
35	0xbdbdb00d	-0.09262095
36	0xbd04dc87	-0.032436874
37	0xbe3366fb	-0.17519753
38	0xbdc1c5d8	-0.09461564
39	0x3c236699	0.009973192
40	0xb5ce890c	-1.5388082e-06
41	0xbc8d3849	-0.017238753
42	0x2da74c84	1.9019682e-11
43	0x3e58d514	0.21175033
44	0x3d83543a	0.06412549
45	0x3e04522c	0.12921971
46	0xbd240dad	-0.040052105
47	0x3dcb3c0d	0.09923563
48	0xb9536feb	-0.00020164221
49	0xbc905af7	-0.0176215
50	0xbed195cb	-0.40934595
51	0xb90a35a2	-0.00013180685
52	0x3ce7d592	0.02830008
53	0xbc91efd9	-0.017814564
54	0x3ad8cce0	0.001654055
55	0xbe0ac88a	-0.13553062
56	0x3ce45ac9	0.027875321
57	0x3d0724b9	0.032994006
58	0xbe617cb9	-0.22020234
59	0xb8e6d1ca	-0.00011006331
60	0xbe14993c	-0.1451158
61	0xbed3d660	-0.41374493
62	0x3d677bb8	0.05651447
63	0x3de4c515	0.11170403
64	0xbdf44793	-0.11927714
65	0xbeb3535b	-0.35024533
66	0xbd23ad4a	-0.039960183
67	0x3c816091	0.015793117
68	0xbe91fbdf	-0.28512475
69	0xb700f670	-7.686773e-06
70	0xbb1c1765	-0.0023817655
71	0x392c8485	0.00016452566
72	0xbbc39705	-0.0059689307
73	0xbd330f3c	-0.0437157
74	0xbe4072df	-0.1879382
75	0xbd71e5c4	-0.059057012
76	0xbd521337	-0.051287856
77	0xb9ea3a33	-0.0004467532
78	0x3b521500	0.0032055974
79	0x3e06ce11	0.13164546
80	0xbeca8d3d	-0.3956088
81	0x392fcbbe	0.000167652
82	0xbcbdeee7	-0.023185207
83	0xbe32de3f	-0.17467593
84	0xbbde9b6b	-0.0067934296
85	0x3dd11a31	0.10210074
86	0xbd657b35	-0.056025703
87	0xbd2ce37d	-0.042209137
88	0xbcb713a7	-0.022348238
89	0xbbe90380	-0.007111013
90	0xbc6e0be4	-0.014529202
91	0xbca4c714	-0.02011446
92	0x3d12512e	0.03572195
93	0xbb5aae33	-0.003336799
94	0x3e33d394	0.1756118
95	0xa2bc1902	-5.098398e-18
96	0x3bfe8e21	0.007768408
97	0xbe129879	-0.14315976
98	0xbe98e71a	-0.29863816
99	0xbe853d46	-0.2602331
100	0xbe8117de	-0.25213522
101	0xbd22ca60	-0.03974378
102	0xbdcaa1ce	-0.09894143
103	0xbe1c4761	-0.15261604
104	0x3c2894b7	0.010289363
105	0xbca5eece	-0.020255473
106	0xbed5aa93	-0.417317
107	0xbe8cfffb	-0.27539048
108	0xba873187	-0.0010314443
109	0x3cc1f862	0.023678008
110	0xb701aeb8	-7.729679e-06
111	0xbec5caef	-0.3863139
112	0x0000f8e7	8.929e-41
113	0xbe22fd97	-0.1591705
114	0x3cfcbb42	0.03085101
115	0xbef55b22	-0.4792109
116	0xbe7f1d85	-0.24913605
117	0xbc4a0207	-0.012329585
118	0x3e034057	0.12817512
119	0x3de8be7d	0.11364458
120	0xbdc4caf5	-0.096090235
121	0xb506872a	-5.011558e-07
122	0xbdc7810d	-0.09741411
123	0xbe88ac6a	-0.26694041
124	0xbbb42288	-0.0054972805
125	0xbef18eda	-0.471793
126	0xbc9b329a	-0.018945027
127	0xb96d0ccd	-0.0002260685
128	0xbe60d583	-0.21956448
129	0x3ba2ea52	0.004971781
130	0xbd056f70	-0.03257698
131	0xbdbf0798	-0.0932762
132	0xbb298a00	-0.0025869608
133	0xbe512da5	-0.20427568
134	0xbb42e137	-0.002973629
135	0xbe6c7c21	-0.23094226
136	0xbc50285a	-0.012704933
137	0x3adb71d0	0.0016742293
138	0xbe58bef6	-0.21166596
139	0xbe32a315	-0.17445023
140	0xbe42e2bc	-0.19031805
141	0xbe91a41a	-0.28445512
142	0xbe018c90	-0.12651277
143	0x3a848fb7	0.0010113631
144	0xbe899bec	-0.2687677
145	0x3bae06cb	0.0053108684
146	0xbd6d4985	-0.05793144
147	0xbd334bad	-0.043773342
148	0xbcdddf4e	-0.027084019
149	0xbd53d8fc	-0.051720604
150	0xbda18774	-0.07887164
151	0x3e4816f6	0.19540009
152	0x3c46769a	0.012113238
153	0xbeccab4d	-0.39974442
154	0xbd1fd260	-0.03901899
155	0xbcb9d973	-0.022686696
156	0xbebb6f5a	-0.36608392
157	0x3c16a7f3	0.009195316
158	0xbd02426d	-0.03180163
159	0xbcb5ab08	-0.02217628
160	0x3cb9da4e	0.022687104
161	0xbd016e8d	-0.03159957
162	0xbdd9b795	-0.106307186
163	0xbe909e9f	-0.28246018
164	0xbe41fce7	-0.18944131
165	0xbe85bbb5	-0.26119772
166	0xbda8f335	-0.08249513
167	0x3c8144a4	0.0157798
168	0xb6910ad0	-4.3225955e-06
169	0xbcff6ea8	-0.031180695
170	0x8b66c73f	-4.4446285e-32
171	0x3c061551	0.008183793
172	0xbd8007d0	-0.0625149
173	0xbc5f7b5e	-0.013640253
174	0xbd9c4277	-0.07629865
175	0x3dd65df7	0.10467141
176	0xba0beeff	-0.00053380424
177	0xbe26b3f8	-0.1627959
178	0x39d80884	0.00041205075
179	0xbb22265d	-0.0024742105
180	0xbd260820	-0.040535092
181	0xba08cb7d	-0.00052183104
182	0xbab45f08	-0.0013761232
183	0xbe13fd90	-0.14452195
184	0xbd2a7b64	-0.04162158
185	0x3ca4b84e	0.020107415
186	0x3d874922	0.06605746
187	0x3cc044a7	0.023470236
188	0xbe098ce7	-0.13432656
189	0xbed1a4b3	-0.40945968
190	0x3ce812c4	0.02832926
191	0x3da2e00a	0.07952888
192	0xbd67ee3f	-0.056623694
193	0x3d5e1afc	0.054224953
194	0xbc811c9e	-0.015760716
195	0xbe854f8a	-0.26037246
196	0xbd65f43b	-0.05614112
197	0xacbf6bb4	-5.440504e-12
198	0xb78f0c8f	-1.7052776e-05
199	0x1b27873f	1.3857617e-22
200	0xbbd9a009	-0.006641392
201	0xbe33aab1	-0.17545582
202	0xbe91445c	-0.28372467
203	0xbcd80b5a	-0.0263726
204	0xbcacbd78	-0.02108644
205	0xb7cb0047	-2.4199615e-05
206	0xb442df3b	-1.8148869e-07
207	0x3dad9183	0.0847502
208	0xbf0092d3	-0.50224036
209	0xacd62dcb	-6.08733e-12
210	0xbe95ffa6	-0.29296607
211	0x3df7a048	0.12091118
212	0xbc284948	-0.010271378
213	0x3db7b628	0.089702904
214	0xbd986deb	-0.0744284
215	0xbc4ff369	-0.012692311
216	0xb9682ee2	-0.0002214271
217	0xbc92558e	-0.017863061
218	0xbcf3df1a	-0.029769469
219	0xb6712869	-3.593532e-06
220	0xbcaf12e2	-0.021371309
221	0xbab2dc96	-0.0013646062
222	0x3e1e3d7c	0.15453142
223	0x81f0766c	-8.8332003e-38
224	0x3b5ccc2f	0.003369104
225	0xbe02261f	-0.12709855
226	0xbdf45af0	-0.119314075
227	0xbd85fbe0	-0.06542182
228	0xbe8a4119	-0.2700279
229	0x3ddef7e7	0.10887127
230	0xbe143519	-0.1447338
231	0xbe237cd6	-0.1596559
232	0xbde45bb3	-0.11150303
233	0xbc32a35e	-0.010903208
234	0xbe39ed5a	-0.18156949
235	0xbe7cd938	-0.24692237
236	0x33423ae3	4.5222702e-08
237	0xbc379fd7	-0.011207542
238	0xb8e955c9	-0.000111262845
239	0xbcf05b1e	-0.029340323
240	0x80406018	-5.911944e-39
241	0xbe864ac7	-0.26228926
242	0xbe208da9	-0.15679039
243	0xbe6d9759	-0.23202266
244	0xbd995afa	-0.074880555
245	0xbc10fffd	-0.008850095
246	0x3e2c2177	0.16809641
247	0xbd4329af	-0.047647174
248	0xbed85bae	-0.42257446
249	0xb060ab6c	-8.173433e-10
250	0xbe48cc5d	-0.19609208
251	0xbe06af3e	-0.13152787
252	0x3ae1dfde	0.0017232855
253	0xbf30c04e	-0.69043434
254	0x3bd01668	0.0063503273
255	0x8c40f096	-1.4863541e-31

fc.bias f4 [370]
0	0x3d7f6867	0.062355425
1	0xbeaa92e2	-0.33315188
2	0xbdacaf6e	-0.08431898
3	0xbe45b9bd	-0.19309135
4	0x3d25672a	0.040381588
5	0xbde1f5f6	-0.110332415
6	0x3cee14b4	0.029062606
7	0xbda517ef	-0.080612056
8	0x3bfe160d	0.0077540935
9	0x3e4043d9	0.18775882
10	0xbe7ebdad	-0.24877043
11	0x3ea0704e	0.31335682
12	0xbf046307	-0.51713604
13	0xbe81100d	-0.25207558
14	0x3c0e3fc8	0.008682199
15	0xbe8f9171	-0.2804065
16	0xbe24b6ac	-0.16085309
17	0xbeb72920	-0.35773563
18	0xbd4f90df	-0.05067527
19	0x3d13bda9	0.036069546
20	0x3e81d37f	0.2535667
21	0xbd0a33dc	-0.033740863
22	0xbe581b4f	-0.21104167
23	0x3d6c6bbf	0.057719942
24	0x3e4c8272	0.19971636
25	0x3c1d714a	0.00960953
26	0x3e13b83d	0.1442575
27	0xbe10c97b	-0.14139359
28	0xbe3eeed3	-0.18645792
29	0xbc94bcce	-0.018156435
30	0x3e6ed269	0.23322453
31	0x3d7e0243	0.062013876
32	0xbe480724	-0.19533974
33	0x3e8ce411	0.2751775
34	0x3e94050e	0.28910106
35	0xbe7a6763	-0.24453501
36	0x3cf38bd6	0.029729765
37	0xbeeb645b	-0.45975003
38	0xbe0eae89	-0.13933767
39	0x3da133f8	0.078712404
40	0xbea26278	-0.3171575
41	0x3dd4766e	0.10374151
42	0xbd925a4c	-0.07146129
43	0xbce57753	-0.028011
44	0x3dc5eb5d	0.096640326
45	0x3e8d2569	0.27567604
46	0x3d866d40	0.065638065
47	0x3d489b8e	0.048976474
48	0xbd8a7dfb	-0.0676231
49	0x3d52d002	0.051467903
50	0xbd544e56	-0.05183252
51	0xbe0961dc	-0.13416237
52	0xbe5488a2	-0.20755246
53	0xbd8dc0de	-0.06921552
54	0x3e623bd8	0.22093141
55	0xbe07d73e	-0.13265702
56	0xbeef7348	-0.4676764
57	0xbf09b4e0	-0.5379162
58	0xbde4ca96	-0.11171453
59	0xbc3127b4	-0.010812689
60	0xbd8c92ea	-0.06863959
61	0xbda144c2	-0.07874443
62	0x3ea25c6a	0.3171113
63	0x3ceda2c9	0.029008286
64	0xbdef74d9	-0.11692209
65	0x3d5c13a5	0.053729672
66	0x3dad75c9	0.08469731
67	0xbe99eedb	-0.30065045
68	0xbe00bd46	-0.12572202
69	0xbe23e724	-0.16006142
70	0xbea81dc0	-0.32835197
71	0xbea38f48	-0.31945252
72	0x3d91dc72	0.07122125
73	0xbe109091	-0.14117648
74	0x3e974ba7	0.29549906
75	0xbe704fce	-0.23467943
76	0x3e59fea7	0.21288548
77	0x3e0f1fc1	0.13976957
78	0xbc287f09	-0.010284194
79	0xbd510897	-0.051033583
80	0x3df72813	0.120681904
81	0x3e49ae07	0.19695292
82	0xbdbb2a3f	-0.09138917
83	0xbe936053	-0.28784427
84	0xbe8839d6	-0.26606625
85	0xbd29df9f	-0.041473027
86	0xbd932620	-0.07185006
87	0x3ebe5fd6	0.37182492
88	0x3d8a1c9d	0.06743739
89	0xbd89814e	-0.06714116
90	0xbc966fda	-0.018363882
91	0x3ddd8c8c	0.10817823
92	0xbdecf65b	-0.11570426
93	0x3e346927	0.17618237
94	0xbd806a87	-0.062703185
95	0xbc474b39	-0.012163931
96	0x3daf5769	0.08561594
97	0x3ceed5ce	0.029154684
98	0xbe741a8a	-0.23838249
99	0xbe0f92d6	-0.14020857
100	0xbd51a92a	-0.051186718
101	0x3ef5e712	0.48027855
102	0x3e767290	0.2406714
103	0x3d38d2ca	0.0451229
104	0x3d95e54a	0.07319124
105	0x3e82e57b	0.25565705
106	0xbdca4b5b	-0.09877654
107	0x3e4cf8e3	0.20016818
108	0x3d6a604c	0.057220742
109	0x3e46cc2b	0.19413821
110	0x3dc7466d	0.097302295
111	0x3ea94989	0.33063915
112	0xbeab61b3	-0.33472976
113	0xbf014d18	-0.5050826
114	0xbf069485	-0.5257037
115	0xbe5c2478	-0.21498287
116	0xbe479ed2	-0.19494179
117	0xbd522e61	-0.05131376
118	0xbc4043d3	-0.011734921
119	0x3e1ad2ce	0.15119478
120	0xbc085595	-0.008321186
121	0xbe096b31	-0.13419797
122	0xbdd13ba7	-0.10216456
123	0xbe1add84	-0.15123564
124	0xbd020398	-0.03174171
125	0xbd4dafa2	-0.050216325
126	0xbd6c4b98	-0.05768928
127	0x3ccaadbc	0.024741046
128	0x3d8962c4	0.06708291
129	0xbe6edd80	-0.23326683
130	0xbe0238bf	-0.1271696
131	0x3d52d134	0.051469043
132	0x3eeb16b2	0.45915753
133	0xbcc97e80	-0.024596453
134	0xbdc33435	-0.09531442
135	0x3c69c0b7	0.014267138
136	0xbc821a5f	-0.015881715
137	0xbe59fabb	-0.21287052
138	0xbea06d11	-0.3133321
139	0xbe614445	-0.21998699
140	0x3d3ec827	0.0465776
141	0xbec5c9f7	-0.3863065
142	0xbe753279	-0.23945035
143	0xbea2e41d	-0.31814662
144	0xbe4940de	-0.19653651
145	0xbbe536a2	-0.006995038
146	0xbdaab7aa	-0.083358124
147	0x3dad2ec2	0.08456184
148	0xbcd32e09	-0.025778787
149	0x3debc1c2	0.11511566
150	0x3ebdefe7	0.37097093
151	0x3d4e03b3	0.050296497
152	0x3dbb2bcf	0.09139215
153	0x3cd853f2	0.026407216
154	0x3dc8c33a	0.098028615
155	0xbcf330c4	-0.02968634
156	0xbc9a63df	-0.01884645
157	0x3c5d3533	0.013501453
158	0xbe24bd16	-0.16087756
159	0xbdc90b06	-0.09816556
160	0xbd68c406	-0.056827568
161	0xbe23b0b6	-0.15985379
162	0x3e981d86	0.29710025
163	0xbe32a7cc	-0.17446822
164	0x3e801493	0.25015697
165	0xbe6f5b11	-0.23374583
166	0x3a98575a	0.0011622712
167	0x3d88e450	0.06684172
168	0xbe3cdd20	-0.18443727
169	0x3cbeacf2	0.023275826
170	0x3ccd7edb	0.025084903
171	0xbdaa4645	-0.08314184
172	0x3d198071	0.037476007
173	0xbe64916d	-0.223211
174	0x3e15c07e	0.14624211
175	0xbda79544	-0.08182767
176	0xbe163fb6	-0.14672741
177	0x3da0294f	0.07820379
178	0xbd31b72d	-0.04338758
179	0xbe474b14	-0.19462234
180	0xbe92d092	-0.28674752
181	0xbd6fd159	-0.05854926
182	0x3d5081e2	0.050905116
183	0xbe19e050	-0.15026975
184	0xbdaf2d73	-0.085535906
185	0xbe098296	-0.13428721
186	0x3e316f3f	0.17327593
187	0x3e017156	0.1264089
188	0x3c94e3d5	0.018175045
189	0x3f191010	0.59790134
190	0x3eb242e4	0.34816658
191	0xbcc81595	-0.024424354
192	0xbe5d90b8	-0.21637237
193	0xbdfa2f35	-0.12216035
194	0xbe89cc86	-0.26913851
195	0x3e6b0d69	0.22954334
196	0xbdbb8e20	-0.091579676
197	0xbe098c17	-0.13432346
198	0x3e6eab21	0.23307468
199	0x3de29921	0.11064363
200	0xbe3e5d46	-0.18590268
201	0xbd1dd2ba	-0.038531043
202	0x3eb9d834	0.36297762
203	0x3d71eaa0	0.059061646
204	0xbd86b5ea	-0.06577666
205	0xbe08c0ae	-0.13354751
206	0x3da405d3	0.080089234
207	0x3c6df7b6	0.014524391
208	0x3de6e4a4	0.112740785
209	0xbdcf443e	-0.10120438
210	0xbd6da385	-0.058017273
211	0xbb3396b9	-0.002740307
212	0x3dc6ccb6	0.09707014
213	0xbd8da1bb	-0.06915613
214	0x3e7eb27a	0.24872771
215	0xbd530c31	-0.0515253
216	0x3db6d933	0.08928146
217	0xbc0fa92d	-0.008768362
218	0x3df646f8	0.12025255
219	0x3e46597e	0.19370076
220	0x3d7d3aed	0.061823774
221	0x3d395cdf	0.045254584
222	0x3dae294a	0.08503969
223	0xbc41498d	-0.011797321
224	0x3ec74f9a	0.3892792
225	0x3d5a4593	0.053289007
226	0xbe356e53	-0.17717867
227	0x3e59b21f	0.21259354
228	0xbdd16fef	-0.10226428
229	0xbd807c24	-0.06273678
230	0xbd93f38e	-0.07224189
231	0x3db49f71	0.088194735
232	0x3de55d31	0.111994155
233	0x3aad6dda	0.0013231591
234	0xbe4c1991	-0.19931628
235	0x3d45e773	0.04831643
236	0xbd49c384	-0.049258724
237	0xbe258408	-0.16163647
238	0x3e0efc8a	0.13963524
239	0x3e072164	0.13196331
240	0x3c38322c	0.011242431
241	0xbde2a94c	-0.11067447
242	0x3c95c563	0.018282598
243	0xbc37b527	-0.011212624
244	0x3e238534	0.15968782
245	0xbdb61dea	-0.088924244
246	0xbdce78f3	-0.10081663
247	0xbce36477	-0.027757866
248	0xbd38ca10	-0.045114577
249	0xbe8cb7c4	-0.27483952
250	0xbe8e5953	-0.27802524
251	0xbdf3e9cc	-0.119098276
252	0xbeca5f1a	-0.39525682
253	0xbe32cb46	-0.17460355
254	0xbd747a6e	-0.05968707
255	0x3e21a662	0.15786126

proxy_head.0.weight f4 [64, 128]
0	0x3d0bd36d	0.03413718
1	0x800309e3	-2.79053e-40
2	0x2a281aff	1.4930764e-13
3	0x3cdf9440	0.02729237
4	0x8043363e	-6.172437e-39
5	0x3baab097	0.0052090394
6	0x30b8117d	1.3392732e-09
7	0x3d03d470	0.032185018
8	0x38516950	4.9927563e-05
9	0x3c65d8f1	0.014028774
10	0x3caf13f9	0.021371828
11	0x3d0cc034	0.034362987
12	0x3c4b81c4	0.012421075
13	0x3c5ee38d	0.013604057
14	0x3b0d975d	0.0021605112
15	0x801835ce	-2.223353e-39
16	0x3d08b2ce	0.033373646
17	0x002d7633	4.174999e-39
18	0x3c8ec8f3	0.017429804
19	0xb497d487	-2.8280576e-07
20	0x3d1d2e8b	0.038374465
21	0x3ce79cd0	0.028273016
22	0x3d119329	0.035540733
23	0x3c863f7b	0.016387692
24	0x000ffdfa	1.468642e-39
25	0x3cf7e2bf	0.030259488
26	0x000ce275	1.183263e-39
27	0x8009ec65	-9.11322e-40
28	0x3c86644a	0.016405243
29	0x8019da72	-2.374251e-39
30	0x3a3d8ee7	0.0007231072
31	0x8005fad1	-5.49153e-40
32	0xb52f4ce6	-6.530448e-07
33	0x3d29b501	0.041432384
34	0x3cc0f03a	0.023552049
35	0x3cebd0ef	0.02878615
36	0x3d1ceb2d	0.03831022
37	0x3cfa7a4c	0.030575894
38	0x3a0b8a58	0.0005323044
39	0x800ce5fa	-1.184526e-39
40	0x0eebc870	5.8124987e-30
41	0x0010eccb	1.554313e-39
42	0x804181e0	-6.015898e-39
43	0x3c92a3ed	0.017900432
44	0x3ce62928	0.028095797
45	0xbb4f94ae	-0.0031674313
46	0x3cdcedf1	0.026968928
47	0x3c8618e7	0.016369296
48	0x802250a8	-3.151341e-39
49	0x3ce4d5ca	0.027933974
50	0x3cdd8426	0.027040552
51	0x803b42cd	-5.442258e-39
52	0xb9d7152a	-0.00041023764
53	0x0014e6e9	1.919545e-39
54	0x8010637d	-1.505058e-39
55	0xbc8eef91	-0.017448219
56	0x3d1eeb03	0.038798343
57	0x3d1b0b90	0.037852824
58	0x3b0d1f3a	0.0021533505
59	0x2f61fafd	2.05528e-10
60	0x3c50e66f	0.012750252
61	0x3c1fb87a	0.0097485725
62	0x3d114866	0.035469435
63	0x3d0b203e	0.033966295
64	0x3ca7888e	0.020450857
65	0x3c5aadd3	0.013347107
66	0x8d1a883e	-4.761891e-31
67	0x3d056df5	0.032575566
68	0x3cc54eb5	0.024085382
69	0x801854c1	-2.234456e-39
70	0x8003c601	-3.46537e-40
71	0x00071893	6.51664e-40
72	0x803435e1	-4.794774e-39
73	0x3ca8d136	0.020607572
74	0x3c66ef62	0.014095159
75	0x0684e399	4.9987306e-35
76	0x9f28f1f6	-3.577553e-20
77	0x0044edfc	6.330186e-39
78	0x000ebe44	1.353951e-39
79	0x3d0cbf09	0.034361873
80	0x3c99932b	0.018746933
81	0x8031ce84	-4.574023e-39
82	0x3cb073a3	0.021539515
83	0x3bf25845	0.0073957765
84	0x80130467	-1.746454e-39
85	0x3c9ee1f7	0.019394858
86	0x3324b8c0	3.8352255e-08
87	0x00156543	1.964871e-39
88	0x802124ea	-3.043814e-39
89	0x002d0f2a	4.138037e-39
90	0x3009c33c	5.0117754e-10
91	0x00083db2	7.56816e-40
92	0x3d3fbb14	0.04680927
93	0x801ff8a2	-2.936093e-39
94	0x3aeea360	0.0018206649
95	0x80d7dcc8	-1.9823833e-38
96	0xae5233af	-4.7794376e-11
97	0xbb6bf152	-0.0036001992
98	0x3ccfb659	0.025355505
99	0x3cf6dd8b	0.030134937
100	0x3c34e26f	0.011040314
101	0x3c475f28	0.012168683
102	0x3d0ae4a7	0.033909466
103	0x3d1b029c	0.037844285
104	0x3d5b1ed4	0.053496197
105	0x3c9235d6	0.017847937
106	0x3c996c2f	0.018728344
107	0x3b9e0363	0.004822181
108	0x001dfc7e	2.753807e-39
109	0x000234d9	2.02629e-40
110	0xa750399d	-2.889703e-15
111	0x3c9f788f	0.019466667
112	0x80817acd	-1.1890832e-38
113	0x3ccea1fd	0.025223726
114	0x3c7feae4	0.015619967
115	0x3b9cc9da	0.004784805
116	0x3d118ade	0.035532825
117	0x3c502c22	0.012705835
118	0x3cd5bda5	0.026091406
119	0x3d210dd1	0.039319817
120	0x3d080a13	0.033212733
121	0x03ae94d0	1.02609665e-36
122	0xbc7d4b7c	-0.015459891
123	0x3cc568ca	0.024097819
124	0x1eb047b6	1.8664384e-20
125	0x3d0a9f43	0.03384329
126	0x803359b9	-4.715797e-39
127	0x804b800d	-6.933598e-39
128	0xb0a34625	-1.1879747e-09
129	0x819d6a24	-5.7824996e-38
130	0x00475133	6.549449e-39
131	0x311da323	2.293924e-09
132	0x0005e949	5.42864e-40
133	0xb1da1ff1	-6.3482664e-09
134	0x815bc268	-4.0363427e-38
135	0x321f099f	9.257206e-09
136	0x822266bc	-1.1931364e-37
137	0xb2b07237	-2.0541036e-08
138	0xb2a34313	-1.90062e-08
139	0xaf32cf64	-1.6262686e-10
140	0x30633477	8.2656676e-10
141	0xb329ea05	-3.956122e-08
142	0x30bc8b03	1.371831e-09
143	0x0048271c	6.626186e-39
144	0x313ea6f8	2.774355e-09
145	0x800bb350	-1.074516e-39
146	0xb5191b36	-5.703654e-07
147	0x00363576	4.978295e-39
148	0x32013df8	7.522878e-09
149	0x32886e48	1.5882634e-08
150	0x31cacbcc	5.9021428e-09
151	0xb209a03d	-8.0108835e-09
152	0x803f91cd	-5.83794e-39
153	0xb5025edd	-4.856682e-07
154	0x802425f0	-3.319687e-39
155	0x8040c699	-5.948715e-39
156	0xb467fd14	-2.1605621e-07
157	0x8040614a	-5.912372e-39
158	0x81e705dc	-8.4864406e-38
159	0x002e0890	4.227504e-39
160	0xa605d243	-4.64286e-16
161	0xb0830800	-9.533778e-10
162	0xb236738f	-1.0620069e-08
163	0xb004cc45	-4.8311605e-10
164	0x314ce84b	2.981795e-09
165	0x330e5d18	3.314662e-08
166	0x001efda2	2.846051e-39
167	0x01b602da	6.6860333e-38
168	0x0033adb2	4.74592e-39
169	0x02127281	1.0759247e-37
170	0x006bc92c	9.898565e-39
171	0xb462fe1a	-2.1140332e-07
172	0xb3992511	-7.13136e-08
173	0xafca221e	-3.6767828e-10
174	0x329309a1	1.7117431e-08
175	0xb382f6d9	-6.098498e-08
176	0x00bd50ec	1.7385938e-38
177	0xb207c812	-7.903525e-09
178	0xb3464d7b	-4.6170936e-08
179	0x002aca7b	3.929727e-39
180	0xa1df7489	-1.5141914e-18
181	0x801c7289	-2.612481e-39
182	0x0000d022	7.4664e-41
183	0xb4309d53	-1.6448512e-07
184	0x321f7119	9.2807335e-09
185	0xb39c735c	-7.2853e-08
186	0xb541f10e	-7.2248883e-07
187	0x80119ff8	-1.61859e-39
188	0xb3c7acfa	-9.298124e-08
189	0xb2e7d646	-2.698938e-08
190	0xb432fcb5	-1.6669476e-07
191	0xb38b8a9e	-6.497906e-08
192	0xb4d87877	-4.0320785e-07
193	0x3131a63d	2.5851385e-09
194	0x82230e8c	-1.1979523e-37
195	0xb526e508	-6.2173103e-07
196	0x312e813b	2.5393792e-09
197	0x802b1cad	-3.959213e-39
198	0x81c53f27	-7.245699e-38
199	0x81a0a617	-5.9013045e-38
200	0x029e40d0	2.3253214e-37
201	0xb0087074	-4.963632e-10
202	0xb444c408	-1.8325238e-07
203	0x01aa47e0	6.2551273e-38
204	0x80aa1fb6	-1.562341e-38
205	0x0048bcee	6.679931e-39
206	0x80050325	-4.60306e-40
207	0xb34e9afd	-4.8104074e-08
208	0x31d4d81f	6.194582e-09
209	0x80022172	-1.95669e-40
210	0x2dfa55af	2.845976e-11
211	0x31869fe8	3.9180925e-09
212	0x01de63de	8.1693223e-38
213	0xb49f2f82	-2.9650624e-07
214	0x80de5968	-2.0419553e-38
215	0x0012a345	1.711609e-39
216	0x00482b66	6.627724e-39
217	0x0023b1a7	3.277972e-39
218	0x821858f8	-1.1192729e-37
219	0x003fc4e7	5.856272e-39
220	0x002cc104	4.110003e-39
221	0x00124314	1.677102e-39
222	0xb28fddbe	-1.6748228e-08
223	0x01653b68	4.210328e-38
224	0x01aaa2ac	6.268156e-38
225	0x31c4dc8e	5.729425e-09
226	0x32185902	8.8678025e-09
227	0xb244cbca	-1.1455038e-08
228	0xaeed5f07	-1.07943925e-10
229	0x31717e66	3.5141965e-09
230	0xb4c972b4	-3.7522625e-07
231	0xb3560c25	-4.9836803e-08
232	0xb39db887	-7.3444475e-08
233	0xb3f49bbe	-1.1390465e-07
234	0x32372f10	1.0662703e-08
235	0x31ed6abb	6.9097417e-09
236	0x000864db	7.70864e-40
237	0x0000f79f	8.883e-41
238	0x8004520c	-3.96775e-40
239	0xb0b0b24d	-1.2856362e-09
240	0x82009349	-9.446224e-38
241	0x3272c2e7	1.413057e-08
242	0x31772c2e	3.5968344e-09
243	0x312d9ad5	2.5262825e-09
244	0xb29ca77b	-1.8236952e-08
245	0x31b224b4	5.1846545e-09
246	0xb3b7d4f2	-8.560336e-08
247	0x32997d73	1.7868592e-08
248	0xb40d553b	-1.3162655e-07
249	0x0017f6b7	2.200721e-39
250	0xb4e9fb5e	-4.3582526e-07
251	0xb4149d92	-1.3840898e-07
252	0x001fc066	2.91592e-39
253	0xb157d979	-3.1410237e-09
254	0x000492a2	4.19944e-40
255	0x8033d354	-4.75942e-39

proxy_head.0.bias f4 [64]
0	0x3da6c328	0.08142692
1	0x320cc955	8.19485e-09
2	0x3d92f0b8	0.0717482
3	0x3d04f6de	0.032461993
4	0x3ddec1b8	0.10876793
5	0x3c9a21e9	0.018814998
6	0x80043ed3	-3.89879e-40
7	0xb290f550	-1.6875362e-08
8	0xa2feaf9e	-6.903278e-18
9	0x3da2e472	0.07953729
10	0x3d8c1096	0.06839101
11	0x3af03d43	0.0018328804
12	0xb0056776	-4.8532145e-10
13	0x3db16944	0.08662656
14	0xbde33d05	-0.11095623
15	0xbac0c842	-0.0014708119
16	0x3da39592	0.07987513
17	0x3da14aa4	0.07875565
18	0x3dc8f709	0.09812743
19	0x3db37b54	0.08763757
20	0x3d69ff88	0.05712846
21	0xbd937a5b	-0.07201072
22	0x3d8681da	0.06567736
23	0xbd6e850a	-0.058232345
24	0xbd539c4e	-0.051662736
25	0xb89e2266	-7.540434e-05
26	0xba05694a	-0.00050892367
27	0x3df2e703	0.11860468
28	0xba1b3b81	-0.00059216475
29	0x37dee30e	2.6570193e-05
30	0x3dc0b632	0.09409751
31	0x3d97c82d	0.074112274
32	0x3dc5e118	0.09662074
33	0x3df22a44	0.11824468
34	0xb65330dd	-3.1469892e-06
35	0x3dbb7cf1	0.0915469
36	0x3d736879	0.059425805
37	0x3da11667	0.07865601
38	0x3d9e72dc	0.077367514
39	0x3d94eb7b	0.07271477
40	0x3d8cd5f0	0.06876743
41	0x3d7f1966	0.06228008
42	0xbb7f2ede	-0.0038937847
43	0xbce09d50	-0.027418762
44	0x3d98daf3	0.07463636
45	0x3dc1eefa	0.09469409
46	0x3d3cd321	0.046099786
47	0x3d6e1899	0.058128927
48	0x3da104f7	0.07862275
49	0x3de11010	0.10989392
50	0x3d369713	0.04457767
51	0xb89af783	-7.389395e-05
52	0x3dbda8fd	0.092607476
53	0x3e063671	0.13106705
54	0x3db90eaf	0.09036004
55	0x3dd2ace4	0.102868825
56	0xbd667265	-0.05626144
57	0x3da53901	0.08067513
58	0xb3446f00	-4.573576e-08
59	0x3d8a9319	0.06766338
60	0xbbee23db	-0.007267458
61	0x3d97b861	0.07408214
62	0x3581e350	9.677406e-07
63	0x3c68c7d3	0.014207798
