models/best.pt (torch, 796579 bytes, 8 tensors)

conv1.weight f4 [32, 3, 3, 3]
00000000: 2ef2 02be f233 92be c86e dcbe 2b8f 6cbe
00000010: d97c e1bd dd9b c3be 41d7 b2be 2b55 ccbe
00000020: 5277 abbe b07f a73e 5a06 043e a93e c83e
00000030: 376d 933e 43d9 b23e 5b42 633e d23d b23e
00000040: 8688 a13e 87d9 ce3e 0621 ef3d 8347 24be
00000050: 43aa f3bd 1e39 6bbd 4d3a 0e3e a307 98bd
00000060: cf76 a8bd 6111 9d3c 2929 f63d 512d 023f
00000070: 4b85 d33e 89f7 8d3c 2d05 a73e b744 5ebd
00000080: 1ae7 26be e8ea c53e c461 7c3e 2a37 4e3e
00000090: 0350 8d3e f6d2 dc3d 7e3a c2bc b0f1 923d
000000a0: f3af 84bd d9bb 97be 3679 3e3d ea95 22be
000000b0: 0dbc d1bd 1cfa 163e 60be 973d 81d7 13be
000000c0: b4d6 29be ff4a b0be 9381 94be 137b 4abe
000000d0: ae40 efbd b147 c8be fcc1 00bf 05a5 c0be
000000e0: d3ce 7cbe cf44 473e 44f2 39bc 2d05 373e
000000f0: 6360 a93e 07a3 4e3e d6d1 c33e 69ad d2be
00000100: 8e90 04bf df1a 15bf a7c7 173e 4256 923d
00000110: 12ea 383d 1b53 c83e 2d4a f43e b4fd 893e
00000120: 68e8 f6be 747a f8be edb7 11bf 5bc5 063e
00000130: a18f 473c cc07 ca3d cdf8 fe3e 3cb1 073f
00000140: f368 753e 53d5 64be d14c 11be 1663 1cbe
00000150: 296b a4be 3648 a3be 0075 6ebe 48a2 e1bd
00000160: 1c8d acbe 08d4 52be 2c0a a63a 278f 20be
00000170: 18e0 c6bd 4e05 94bd 6a79 403d b281 06bb
00000180: e4f0 2abe ea8b 1ebc abf3 3a3d e0cf 653e
00000190: 4433 743e 4de2 6a3e 9116 973e d6b2 733e
000001a0: a014 e93d 7f04 6e3e cf2c 753e 7d79 4d3e
000001b0: fb92 553e f8dd 803d f30f 503d 632c 963e
000001c0: 59a2 923e 5895 c6bc e3d6 9b3d cd81 193e
000001d0: c08f 4ebd b6c7 1b3e 4f9d 933e 4caf 603e
000001e0: 0adf 063e 7ede 8e3e 0a89 7b3d 0860 3d3e
000001f0: d627 18be b3aa c73d 61a5 9d3e fd9e a13e
00000200: 389a f23d 7b11 9b3e 3e11 e63d 8296 ad3e
00000210: ac22 6f3e 2135 44bd e8f6 3d3e fe84 b1bd
00000220: e581 8cbe ba9f c2be 88cf 813e 84f8 143d
00000230: aaec b93d 0983 083f cc5d 923e 7104 483d
00000240: bab2 90be be08 0ebf 81d0 09bf c60c 943d
00000250: 57cc 4fbe a8b2 f3bc 9886 ac3e 3aae 503e
00000260: 63f4 773d 4995 81be 5e2a b5be 9b27 3dbd
00000270: 37d0 5d3e 1ad3 133d 268e e2bd 09d9 133f
00000280: 2cd3 a53e f25d a93d 5e2d af3e b37f d7be
00000290: 9dbe 173e 2794 c93e 6c2f fabd b8cf 92bc
000002a0: 1add 8a3e 7b46 6dbe a88d c5bd ac72 a23e
000002b0: a99c e3be 35fe 1cbe ed48 c73e a2a9 e5be
000002c0: 98f9 aa3c 64fe 523d 991a bfbe b825 523e
000002d0: 4bf1 9a3e d3a4 e7be 0eb0 823e e5f2 813e
000002e0: 5360 9abe ec53 033e 260a 993e 67f0 d6be
000002f0: 1df1 1b3e 7a12 2e3e 98c0 1abd e6cd 9e3e
00000300: 1719 cf3e 82e7 233f d8ed 8f3e 5b05 3cbd
00000310: 11ed 013e bae3 783e 8e71 85be aa10 93be
00000320: ad04 9dbe 6cd9 b23e 16e6 3a3e 9cf7 19be
00000330: cbd7 d7be e540 c8be 1cba cebd 19ac 60be
00000340: 5489 94be c67f ebbe 977f e63e f379 3ebc
00000350: e28f 40be 1db3 c0be a6fc 20be f1a8 bfbb
00000360: aac1 2ebe 165e b13c c8c5 a2bd 7ee1 e93d
00000370: 5697 6abd 1959 333d c5c6 a8bc 7c28 7abd
00000380: 3cad d4bd a695 643e 9ba1 cf3b b284 183e
00000390: d345 99bd 0e6f a93c 9a66 4c3e 1ffb f53d
000003a0: c1a1 2bbe 0ef5 ab3b 8f39 fdbd 9c36 75be
000003b0: 70ef 70be 2178 f1be a035 aabe 4111 d7be
000003c0: 5005 08bf 3fff 99be 9937 dbbe 6e93 3cbe
000003d0: 896a 97bd ce2c e1bd ec9f 34be a925 95be
000003e0: 76aa 523b 4592 98be a32d 89be f946 99bc
000003f0: b15e 6f3e 0f72 cd3e ac1d ba3e d889 a33d
-0.12787697 -0.28555256 -0.4305327 -0.23101489 -0.11010141 -0.38204852 -0.3492985 -0.39908728
-0.33489472 0.32714605 0.12893048 0.39110306 0.28794262 0.34931383 0.22193281 0.3481279
0.31549472 0.40400335 0.116762206 -0.16042905 -0.11897709 -0.057427518 0.13889427 -0.074233316
-0.08225786 0.019173326 0.120195694 0.508504 0.41312632 0.017329948 0.32621136 -0.05426475
-0.16299096 0.38655782 0.2464667 0.20138231 0.27600107 0.10782425 -0.023709532 0.071750045
-0.06478872 -0.29635504 0.046502315 -0.158775 -0.10240946 0.14743847 0.07409358 -0.14437677
-0.16585809 -0.34432217 -0.29005107 -0.19773512 -0.116822585 -0.39117196 -0.50295997 -0.376259
-0.24688272 0.19459842 -0.0113492645 0.17873068 0.3308135 0.20179377 0.3824603 -0.41147926
-0.5178307 -0.5824413 0.14822255 0.071453586 0.0451451 0.39125904 0.47712842 0.26951373
-0.48224187 -0.48530924 -0.56921273 0.13161223 0.01218024 0.098647684 0.49799195 0.53004813
0.23965816 -0.22347002 -0.1418946 -0.15272173 -0.32113007 -0.3189103 -0.2328682 -0.11017281
-0.33701408 -0.20588696 0.0012667826 -0.15679608 -0.09710711 -0.07227574 0.04699079 -0.0020524082
-0.16693455 -0.009676913 0.045642536 0.2244258 0.23847681 0.2293789 0.29509404 0.23798689
0.11380887 0.23243903 0.23942874 0.20065875 0.2085685 0.06292337 0.05079646 0.2933074
0.28639486 -0.024241135 0.07609346 0.14990921 -0.05043006 0.15212902 0.28830954 0.2194187
0.1317102 0.27904123 0.061409988 0.18493664 -0.14858946 0.09749355 0.30790237 0.3156661
0.11845821 0.30286774 0.112337574 0.3390389 0.2335307 -0.04790223 0.18551219 -0.08667944
-0.27442852 -0.38012487 0.25353646 0.036369815 0.09078343 0.53324944 0.28587186 0.04883236
-0.28261358 -0.5548209 -0.53833777 0.07228999 -0.20292793 -0.029748276 0.33696437 0.20378962
0.0605358 -0.25309208 -0.35383886 -0.04618035 0.21661459 0.036089994 -0.11062269 0.57753044
0.32387674 0.08269872 0.342143 -0.42089614 0.14818807 0.39370844 -0.12216076 -0.017921314
0.27121812 -0.23171417 -0.096461594 0.31728113 -0.4445546 -0.15331347 0.38922825 -0.44855982
0.020870969 0.051512137 -0.3732498 0.20522201 0.30262217 -0.45242938 0.25524944 0.25380626
-0.30151615 0.12824982 0.29890555 -0.41980287 0.15228696 0.16999236 -0.037781328 0.31016463
0.4044883 0.6402513 0.28111148 -0.045903545 0.1268809 0.24305621 -0.26063198 -0.2872365
-0.3066763 0.34931505 0.18251833 -0.15035862 -0.42156824 -0.3911201 -0.10094091 -0.2194065
-0.29011023 -0.4599592 0.45019218 -0.011625755 -0.18804887 -0.37636653 -0.15721378 -0.005848997
-0.17066064 0.021651309 -0.0794788 0.11419962 -0.05727323 0.043786142 -0.020602593 -0.061073765
-0.10384604 0.22322711 0.0063364035 0.14894369 -0.07484021 0.020682838 0.19961014 0.12010788
-0.16760923 0.0052477187 -0.12364494 -0.23946613 -0.23528838 -0.47161964 -0.33244038 -0.4200535
-0.53133106 -0.3007755 -0.42815855 -0.18415615 -0.07393367 -0.10994874 -0.1763913 -0.29130295
0.003214506 -0.29799095 -0.2679263 -0.0187106 0.23375966 0.40126082 0.36350763 0.07985276

conv1.bias f4 [32]
00000000: c299 8039 0411 213f 4a31 733b 5b20 d03e
00000010: 177c 453e 5065 203b 6882 58bd d9b7 33bd
00000020: 9971 4dbf 7631 d53d c52a cdbd 6781 783f
00000030: 97ab 313f 0cab 2ebd c54d 84be 27ba 653f
00000040: 18a9 b7be ec34 493e bcf2 b6bd 9139 80be
00000050: 2104 40be 1f24 c2bd f8b6 9d3f 1cdb e3bd
00000060: 3737 f03e 8fdb 7dbf 5f17 40bf e778 5a3f
00000070: 3a7b 283f 71d3 0dbf 0fd1 89be 8216 18be
0.0002452862 0.6291659 0.0037108236 0.40649685 0.19285618 0.002447445 -0.05285874 -0.043876503
-0.8025146 0.104098246 -0.10017923 0.9707245 0.6940245 -0.04264359 -0.25840583 0.8973717
-0.35871196 0.19649094 -0.08933017 -0.2504392 -0.18751575 -0.09479546 1.2321463 -0.11125776
0.46917126 -0.99163145 -0.7503566 0.8534073 0.6581303 -0.5540076 -0.26917312 -0.14852336

conv2.weight f4 [64, 32, 3, 3]
00000000: b746 be3d 0f0d fabd ab6d c0bd bac4 f93d
00000010: 4d48 ccbd fe2d b8bd e21c 293e ee6e 0dbd
00000020: 03e9 f9ba 0fa5 633e 3e75 2abc 3f23 8cbe
00000030: ea85 6c3e 3446 c2bd 4099 9cbe 9981 973e
00000040: 9ec4 d9bd 3f3a f4bd ab70 613d d150 c6bd
00000050: 034a 1fbe cca3 08be 02e4 bfbe 9956 92be
00000060: e390 e8be 7ac3 19bf ca33 1dbf c56e 643d
00000070: 329b ccbc e092 05bd 2f5c 9d3c 2dc9 c1bd
00000080: 94c8 5abd 1d91 b93d 1b34 37bc 1863 15bc
00000090: 1dd7 8e3e 6670 fabd 363b 11bc 1c65 8c3e
000000a0: b340 33be 7402 20bd 2d82 473e ea22 9cbe
000000b0: 131e abbd 0854 a73e 7ce2 8d3e 845a b43c
000000c0: b57b 5f3e 562c 513c 1013 98bd d460 ee3c
000000d0: 8465 58be 8198 71be f834 1b3f ea0c 863f
000000e0: 88de fe3e 23ea 323f 24f7 803f 0440 093f
000000f0: b031 373f 63ab 693f 5d32 163f 9f52 d7bd
00000100: 8e89 b8bc 3827 98bd 33c8 70bd 5ee9 15be
00000110: e58f 80be fb0f 0bbe c4aa c9bd 3217 50be
00000120: 7e34 a93d a785 2c3e 3b96 d33d 88ba 03bc
00000130: 0e70 a23d 8e8e 6a3c 3eaa 1abd ea66 6e3c
00000140: 0170 45bd aaf9 47be 42f0 87bd 5898 653d
00000150: de2e 33be 8526 6f3c c33a 123e a7fa cabd
00000160: 55c1 993d 6fa5 cb3d 8986 ad3d 6485 ca39
00000170: 7800 2fbd 714f 0a3d 6cbe 33bd a728 86bd
00000180: 4bcc c53d b373 ca3b 619f f03c 2bbd 61be
00000190: 1b38 8abd d393 80bd 31c8 08be 575d 7cba
000001a0: e23f 53bd 11a1 e3ba 0d86 073e 0c61 503d
000001b0: 8fd8 b0bd 9f09 db3d c622 a3bd 07e3 dcbd
000001c0: bf40 963d 445e 0cbe 02b0 44bd 3de3 d43d
000001d0: 5e4a 9cbd 5ee9 113e 6a04 f93e 3e10 ac3e
000001e0: 9b6a 113c 05f1 023f 9bc0 993e ea51 01be
000001f0: c90f e33e 2c00 fd3d def6 0b3e 5ea8 9b3d
00000200: 7608 6dbd 2eb8 a23d 9151 bfbd 34da 37be
00000210: 428b 003e d179 c8bd d7ac edbd 2f25 52bd
00000220: 122a d13d d483 d33d 7e26 2cbe 71f8 593d
00000230: 814b de3c 0796 05be 6c0b d13d 88d1 993d
00000240: a667 873e 5c6f e5bd 454f b7bd ac7d 643e
00000250: c506 39be 20c5 cdbd d9f4 003e 8f64 a4be
00000260: 0743 51be cf34 c83d 6ea2 34bd 138c 46bd
00000270: 0f2e bd3d 6bd6 bcbd cd7a 13bd e0f3 af3d
00000280: c534 7bbd ae08 8ebc 8f07 bbbc 6e6c 833d
00000290: 99c6 3a3d 62c0 66bc 6b29 1a3d 8a31 61bc
000002a0: 106d 64bd 053f 70bc 20fe 8abc 5331 743e
000002b0: bc26 183e 7e13 103d 88d8 dc3d 58f7 beba
000002c0: 31eb e1bd 0542 0e3e 09ed 41bd 0823 9dbd
000002d0: 805a 983a 4fca ee3e 96a0 243f 750d 30bb
000002e0: 740a e33e daf3 173f 4000 3cbd 459d f33e
000002f0: 8738 043f fd05 453f 01da 223f 64e8 633e
00000300: a952 613f 8cd3 163f 988d 5c3e 0686 5c3f
00000310: bdd8 dd3e 8ca8 c73e 7e46 ffbc 6513 623d
00000320: 6ccb c03d 4197 febc 1f87 373c 8cb6 913c
00000330: d680 ea3c 1758 023e 6c8c a33d 6d28 e8bc
00000340: 2ba1 f73e 34b3 333f 5a83 49bd b4a2 e83e
00000350: 73a6 353f c1cd 9cbd 7454 023f eada 243f
00000360: 4e3f 5ebe d05c 25be 7344 1dbe 6595 8ebe
00000370: 2090 47be 4b78 60be c602 84be a9c6 26be
00000380: 6707 3fbe eeac 513e c125 9ebd fac6 863b
00000390: d94f 223e f337 16be 8912 6bbd df82 913d
000003a0: c2c8 5ebe 54ed a3bd 3884 a43d 7bdd 033e
000003b0: c57e 7fbd 6609 07bd 426b 9bbb 0352 52be
000003c0: 7507 27bd 56cb 5fbd c066 3fbe ab9f 5d3e
000003d0: d444 4ebc f23e 80bd d9b8 043e 7d13 d7bd
000003e0: 28a4 05be e70a bd3d 478a febd d696 24be
000003f0: b749 f8bd 56ee 39be 2486 ddbd 8688 6d3c
0.092908315 -0.12209522 -0.093959175 0.12195726 -0.09974728 -0.08993147 0.16514924 -0.03452962
-0.0019066635 0.22230934 -0.010403929 -0.2737064 0.23097959 -0.094860464 -0.3058567 0.29591063
-0.10633205 -0.11925172 0.05503909 -0.09683383 -0.15555577 -0.13343734 -0.37478644 -0.28581694
-0.4542304 -0.600639 -0.6140715 0.0557697 -0.024976347 -0.032610774 0.019208996 -0.09462199
-0.053413942 0.09060881 -0.0111818565 -0.009117864 0.27898493 -0.122284696 -0.008864215 0.2742089
-0.1750515 -0.03906484 0.19483252 -0.30495387 -0.083553456 0.32681298 0.27711856 0.022015817
0.21824534 0.012766918 -0.07425511 0.029098906 -0.21132475 -0.23593332 0.606277 1.0472691
0.49779153 0.69888514 1.0075421 0.53613305 0.7156019 0.9127714 0.586706 -0.105138056
-0.022526529 -0.074293554 -0.058784675 -0.14639804 -0.25109783 -0.13580315 -0.09847024 -0.20321348
0.08261965 0.1684786 0.103313886 -0.008040078 0.07931529 0.014316214 -0.03776001 0.014550904
-0.04820252 -0.19528833 -0.066376224 0.05605349 -0.17498347 0.014596586 0.14280228 -0.099110894
0.07507578 0.09943663 0.08472926 0.00038627826 -0.042725056 0.033767167 -0.043882772 -0.065507226
0.096581064 0.006178343 0.029372873 -0.22044818 -0.067489825 -0.06278195 -0.13357617 -0.0009626946
-0.051574595 -0.0017366727 0.1323473 0.0508738 -0.08635055 0.106951945 -0.07965617 -0.107854895
0.07336568 -0.13707834 -0.048019417 0.10394905 -0.07631372 0.14249179 0.4863618 0.33606142
0.008875514 0.51149017 0.3002976 -0.12628904 0.4434798 0.123535484 0.13668391 0.07600473
-0.057869397 0.07945286 -0.093417294 -0.17954332 0.12553123 -0.0978886 -0.11605232 -0.051304992
0.102131024 0.103278786 -0.16811559 0.053215448 0.027135612 -0.13045512 0.10207257 0.07510668
0.26446265 -0.11202881 -0.08950666 0.22313565 -0.18068989 -0.10047364 0.12593402 -0.3210797
-0.20435725 0.097756974 -0.044100218 -0.04847343 0.092373006 -0.092205845 -0.036005784 0.08591437
-0.06132962 -0.017338123 -0.022830753 0.06417166 0.045599554 -0.014083954 0.037637156 -0.013744721
-0.055768073 -0.0146634625 -0.01696688 0.2384694 0.14858526 0.03517484 0.107834876 -0.0014569564
-0.11031187 0.13892372 -0.047345195 -0.07672697 0.0011623651 0.46638724 0.64307535 -0.002686349
0.44343913 0.5935646 -0.045898676 0.47580925 0.51648754 0.7696226 0.636139 0.22256619
0.88016754 0.58916545 0.21538389 0.86142004 0.4332942 0.3899578 -0.031161543 0.055194277
0.094138 -0.031077983 0.011201649 0.01778724 0.028625887 0.12728916 0.07985768 -0.028339589
0.4836515 0.7019532 -0.049197532 0.45436633 0.70957106 -0.07656432 0.50910115 0.64396536
-0.21703836 -0.16148686 -0.15358143 -0.27848354 -0.19488573 -0.21920888 -0.25783366 -0.1628672
-0.18655168 0.20476124 -0.07722045 0.0041130753 0.15850772 -0.1466978 -0.057390723 0.0710504
-0.2175627 -0.08004251 0.08033031 0.12877457 -0.062376756 -0.032967947 -0.0047430107 -0.20539097
-0.040778596 -0.054637276 -0.1869154 0.2164294 -0.012589652 -0.06262006 0.12961139 -0.10501764
-0.13050902 0.09230595 -0.12428718 -0.16073164 -0.12123435 -0.18157324 -0.10816601 0.014497882

conv2.bias f4 [64]
00000000: 99bb f1bd dfae c8bd 7f3e 14b8 a223 eb3e
00000010: 7566 3cbd e53c 343f 0882 ae3e 346b f9be
00000020: cc55 cdbe 58fd 23b9 0de8 c03d d2b0 8fbc
00000030: 3cc4 c5be f5c8 1cbf c0e2 28bc 925f 093e
00000040: cb28 d93e f643 a53d cb33 453e 3597 c5b4
00000050: 76c4 9da7 1b51 d7b8 5046 47af 3cde eabd
00000060: 07d8 6cbe 66b1 b73e 15f3 4dbd e6f4 2bbc
00000070: 411f f33d 0c38 8eaa e132 5db9 319d 273e
00000080: ff13 b5be 8be3 14be 0098 c0b0 30e8 7bbe
00000090: 8977 62be d935 28bd 0eb9 34bc cd1a 1cb7
000000a0: e952 003e 525e 503e 6118 723e 10e8 30aa
000000b0: 2c49 89bb 2ed5 673e c526 30bb d003 b33e
000000c0: 739b 593c 752c 36bf 0c3d 6fb9 b205 06b1
000000d0: 4597 9abc ddaf c4be 9c63 9cbd 5182 b2bc
000000e0: 02b0 8fbc baf1 f1bc ebf5 3c3f eb65 1d3f
000000f0: 911f b0bc 0a90 3fbd cf3d 17bb 41ee 363e
-0.118033595 -0.09798979 -3.5344154e-05 0.45925623 -0.04599615 0.7040542 0.3408358 -0.48714602
-0.4010452 -0.00015639269 0.0941926 -0.01754037 -0.38626277 -0.61244136 -0.010307968 0.13415363
0.42413935 0.08069603 0.19258039 -3.6804127e-07 -4.3789257e-15 -0.00010267106 -1.8123925e-10 -0.11468169
-0.23129283 0.35877532 -0.05028065 -0.0104954 0.118711956 -2.5263157e-13 -0.00021095156 0.16368558
-0.35366818 -0.14539926 -1.401304e-09 -0.24600291 -0.22115912 -0.041066978 -0.011030449 -9.304565e-06
0.12531628 0.2034848 0.23642112 -1.5712453e-13 -0.004189631 0.22639915 -0.0026878577 0.34963846
0.013281691 -0.71161586 -0.00022815558 -1.9502804e-09 -0.018870959 -0.38415423 -0.076361865 -0.021790655
-0.017539982 -0.02953421 0.7381274 0.6148364 -0.021499427 -0.046768226 -0.0023077612 0.17864324

conv3.weight f4 [128, 64, 3, 3]
00000000: a6c5 82bd dea1 abbd 4b3e dabd 066f 793b
00000010: 600f c5bb 817f cd3b feb4 aa3d 1129 fd3d
00000020: 0222 163e b6e6 613d 34ba 04be 1d61 37be
00000030: c787 043e 8f94 4dbd 37f2 f7bd d0bc 4c3e
00000040: 45fd 143e 41ed 703d b9a6 0b38 79d9 0738
00000050: 9782 9a37 e74f 0338 dbcf 0338 175f 8637
00000060: 672c 7637 ea8a 9037 83f9 da36 7746 bfbd
00000070: 8bc8 fabd 5369 ecbd 5749 f5bd 5102 08be
00000080: a606 fbbd a143 ccbd 7dc0 e8bd 9b18 f5bd
00000090: d27a 0fbe eba1 18be 6db3 1abe c900 e1bd
000000a0: 10aa d8bd 0420 d1bd 4eb8 6fbe d3a8 56be
000000b0: 6902 64be 6d7e cbbd 94cb c4bd db93 24bd
000000c0: ffd8 cdbd 9309 00be f6f0 70bd e35c c1bd
000000d0: 3aeb 0bbe 324a b7bd d71d 8d3e 2645 8a3e
000000e0: 4701 513e 5e48 833e 635c 9b3e 1032 5c3e
000000f0: 1302 453e d168 5e3e 1b6b 3a3e d0f7 803d
00000100: 243f 0b3e 2740 843d 8fe5 8f3d 90a0 0d3e
00000110: 72fd 0d3d 77c3 b8bc d574 843d 04f3 8bbc
00000120: e1fd ab3c 1f3e e1bb 76e4 4c3d c5fb 3a3a
00000130: 5d55 d4bd e2c1 f4bd a175 3fbd 34bf 1abd
00000140: b496 22bd a1dd 123b 86ae 083b d384 de3a
00000150: 43e8 0f3b c9ee 083b 7857 d93a 9eb3 473a
00000160: 25a4 413a 94f3 f639 d4a7 413e f63c 883d
00000170: e60e 403e 02c2 4a3e 2726 023e 7c02 d23d
00000180: e2d3 3fbd 7404 9bbd 6a6b 2ebc 3bab b2bd
00000190: dbf1 7bbd c9d0 853d a755 3cbe dcf7 2cbe
000001a0: d345 afbd 8bcb 9bbe 5f57 57be e332 54be
000001b0: 0c99 9e3c e4f4 5a3e 2b73 6c3e c276 04b9
000001c0: d7be 383e 88d5 2c3e 8c63 ffbc c732 753e
000001d0: dc19 9f3e ae16 263d c6d1 d23b 2e46 123e
000001e0: 7cda 1dbe 0d7c 0dbe bb2e a63c bec0 2a3c
000001f0: 4445 6e3d 9484 5c3e 4da5 3c3c 2184 493c
00000200: 83e2 2b3c bf96 353c d802 3e3c 00e4 293c
00000210: 4010 0f3c 7921 203c 944d 043c cba6 ebbd
00000220: 70f6 9dbd 5ccd febd e2bd 03be 7450 83bd
00000230: 4808 7dbd bdf9 d1bd 80f2 1dbd 2657 95bd
00000240: 4420 d8bd 0dee 31be d577 0dbc 5555 07be
00000250: 7569 62be 9021 13be 9dfc b63a 55e1 adbd
00000260: 2f21 c8bc 1449 40be 4513 38be 8c8e 6cbe
00000270: 789d 38be a53b 2cbe a852 65be a21c a0be
00000280: ad88 8bbe 6e30 9abe 958b 2f3e 7e18 353d
00000290: f9fa eb3e 6b11 603d 29f8 2dbe c1b5 623e
000002a0: ae3e 823e 6a0b 08be 6d69 1f3e 5611 1233
000002b0: 42b1 4133 1f57 f932 6f4f 3233 b2f2 5c33
000002c0: f621 1033 7201 4c32 2cc6 8532 dab9 0532
000002d0: 6f66 4223 f588 8923 8a83 b823 fc6d 16a2
000002e0: 2730 fda0 b172 6024 425b b324 ebe3 0324
000002f0: ade9 8224 4119 7037 f839 6d37 9d1a 1737
00000300: 8c55 8e37 db15 8437 e36f 2e37 08ea dd36
00000310: ae4e 0637 e048 b736 e0e1 2b2d 4486 1b2d
00000320: 2df6 2f2d b1ae 4a2d cc63 4f2d 9f25 642d
00000330: 6da0 212d 9484 2b2d d12c 222d 2d38 38be
00000340: aebf 7bbe eea5 e0bd 518e 8cbd 3462 2bbe
00000350: 038c c9bd 2225 f4bd 6faa 67be be92 26be
00000360: 1f39 b53c 39ed bd3d 7cf1 c83d c101 b2bc
00000370: 5bf6 503d cc83 cf3d 40a5 aabc 9302 893d
00000380: 1824 4e3e a6e9 88be 4859 adbe 8a02 a2be
00000390: 405c 8ebe 1011 92be 994f 9ebe 9e7d 68be
000003a0: 7e10 60be 7074 87be 6a54 39be 56e5 48be
000003b0: 6066 1ebe 55ac 22be d2ca 12be f101 35be
000003c0: 8dfd a8be a8a8 8ebe 1ba7 78be edd2 823c
000003d0: 6399 7c3c cd97 773c 0ebf 863c f0fe 833c
000003e0: c997 7e3c 1a37 793c 4c4d 7c3c 1c7e 6a3c
000003f0: 5b97 0a3e ee04 103e 717b d73d 78b8 543d
-0.06385355 -0.08380483 -0.10656413 0.003806056 -0.0060137957 0.006271303 0.08335303 0.123613484
0.1466141 0.055151664 -0.12961656 -0.1790814 0.1294242 -0.050190505 -0.12106746 0.19993901
0.1454974 0.058820013 3.3295455e-05 3.2389045e-05 1.8419041e-05 3.130725e-05 3.1426414e-05 1.6018324e-05
1.4673081e-05 1.7230825e-05 6.5259533e-06 -0.09339612 -0.12245282 -0.115435265 -0.11976879 -0.13282134
-0.122571275 -0.09973837 -0.11364839 -0.11967584 -0.14011696 -0.14905517 -0.15107508 -0.10986478
-0.10579312 -0.102111846 -0.2341015 -0.20962839 -0.22266544 -0.09936223 -0.09609142 -0.04018007
-0.10051154 -0.12503652 -0.05882355 -0.09441545 -0.1366395 -0.089496985 0.27561828 0.2700588
0.20410644 0.2564115 0.30343923 0.21503472 0.19239073 0.21719672 0.1820492 0.062972665
0.13598305 0.064575486 0.07026207 0.13830781 0.034665532 -0.022554142 0.064675964 -0.017083652
0.020995082 -0.0068738605 0.050022565 0.00071328535 -0.10367844 -0.11951043 -0.04674304 -0.03778
-0.039694503 0.0022409933 0.0020855977 0.001697684 0.0021958507 0.002089428 0.0016581854 0.00076180126
0.0007386825 0.00047102256 0.18911678 0.066522524 0.18755683 0.1980057 0.12709866 0.1025438
-0.046832927 -0.07569209 -0.010645727 -0.08724066 -0.06150995 0.06533963 -0.18392049 -0.16891426
-0.0855824 -0.30428728 -0.21029423 -0.20722537 0.019360088 0.21382481 0.23090808 -0.00012632742
0.1804155 0.1687833 -0.031175397 0.23945151 0.31074417 0.040548973 0.0064336983 0.14284584
-0.15415376 -0.13816853 0.020285955 0.01042193 0.058171526 0.2153495 0.01151402 0.012299568
0.010491016 0.011083304 0.011597358 0.010369301 0.008731902 0.0097736055 0.008075137 -0.115064226
-0.0771302 -0.12441513 -0.12865403 -0.064118296 -0.061775476 -0.10252712 -0.038561344 -0.07292013
-0.10553029 -0.17375965 -0.008634527 -0.13216145 -0.22110541 -0.14368272 0.0013960783 -0.08490244
-0.024429886 -0.18777877 -0.179761 -0.23101252 -0.1802882 -0.16819628 -0.22394812 -0.31271845
-0.27252713 -0.30115074 0.1714309 0.04421281 0.46089914 0.05470411 -0.16989197 0.22139646
0.25438446 -0.13285604 0.1556756 3.400904e-08 4.509753e-08 2.9027033e-08 4.15161e-08 5.144347e-08
3.35585e-08 1.18746915e-08 1.5573356e-08 7.783877e-09 1.0538452e-17 1.4911573e-17 2.0005029e-17 -2.0387016e-18
-4.2891732e-19 4.8669405e-17 7.778347e-17 2.859915e-17 5.6774375e-17 1.4310995e-05 1.4139798e-05 9.006498e-06
1.6967555e-05 1.5745803e-05 1.0397259e-05 6.613558e-06 8.005341e-06 5.4623088e-06 9.770379e-12 8.840543e-12
1.000226e-11 1.152116e-11 1.1788747e-11 1.2968653e-11 9.187412e-12 9.749663e-12 9.218585e-12 -0.1799018
-0.24584839 -0.109691486 -0.06863082 -0.1673668 -0.09841158 -0.11921145 -0.22623609 -0.16266915
0.022121964 0.09273762 0.098116845 -0.021729352 0.051016193 0.1013256 -0.02083075 0.06689944
0.20130956 -0.2674076 -0.3385718 -0.31642562 -0.27804756 -0.28528643 -0.30920103 -0.22704169
-0.21881291 -0.26456022 -0.18098608 -0.19618735 -0.1546874 -0.15886052 -0.14335182 -0.17676522
-0.33005944 -0.2786305 -0.24282496 0.015969718 0.01541743 0.015111876 0.016448524 0.016112775
0.015539118 0.015210891 0.015399288 0.014312293 0.135343 0.1406438 0.105215915 0.051933736

conv3.bias f4 [128]
00000000: b099 47bd a3c1 be97 11b2 abbb 905f 3ebd
00000010: ce65 8abc 1599 833c 4c3f 7fbd 0ec0 92bd
00000020: fa09 c11e a395 8e3d 9413 4bbd 6a88 7abc
00000030: 7b38 c12f 7413 4dbd 9a2f febc e48d c03d
00000040: c253 17be 6cde 0db3 dbbd 283d 31f4 db3d
00000050: 4c7c 0700 273d 3bbb 4f32 853d 63ea 4fb7
00000060: eb21 30bd 9d12 553d 82ae 1cbe 35c5 183e
00000070: 8ec9 5e3d 3bc1 3c00 bff8 d83b 39e6 3600
00000080: 3d53 eebd fb37 47b7 afca 3eb5 a382 5ebd
00000090: 3755 83bd 54e7 2aad 015a 0300 3747 a5bd
000000a0: 05cd a4b4 b00d 4dbd 4b65 4300 1f60 d5bc
000000b0: 4e2a 1bbd 32ba b3bd f64c 1c80 8c7b 1480
000000c0: 0336 80bc 38a0 c3a9 d03a d5bc 7e25 38bd
000000d0: 86f8 293c 67e5 2db2 2cbc 4eba df55 ae86
000000e0: 3eec 9e96 d6c2 8ab5 ec4c 34ad eb28 d0bd
000000f0: 15f6 a3bb 7697 0c3d 90a9 b8b7 4943 84bc
00000100: dd4a 07ad fd01 983b 8920 9ebc ac89 b9bd
00000110: b583 bebd 8ceb 2cbc 1537 c7bc b56d 06bc
00000120: 6a17 c53d 3e02 243c 0c97 75bc 3bd9 bc3d
00000130: a511 86ba ef1b 35bc 5bb4 c6bd 67f9 51b7
00000140: 96cc e63b 0c29 313d 02ae 7e31 e321 053d
00000150: e8a6 89bd 95eb 49bd 99a4 beb1 cf7e 813d
00000160: 11b1 87bd 576a d619 ff3c adbc 69ba cfbc
00000170: 224b 8bbd b4ad 51bd af11 d23d 34d3 cc3d
00000180: 20f2 13be e7cb 48bd b7df 81b6 4a7a 4b3d
00000190: e89d 830a 86de 59bd fdfe bdbd 11bc 0fbd
000001a0: 5f60 15bd 9ad9 1a80 01ea a6bc 0ba4 2800
000001b0: cd2f 4bbb 7cba 7c11 deb1 54bd 00db eebb
000001c0: 424c 8bba b530 043d 9c60 0eb2 0ce0 0b3d
000001d0: ffb2 75bd 3243 39bd 0208 0bbc 2e66 273d
000001e0: 0261 453c 0ec2 e8ae 83a3 50bd ffbe 14bd
000001f0: 9e62 c9bd 9189 53bd bec4 98bd 7ad8 0a3e
-0.048730552 -1.2327343e-24 -0.005239733 -0.046477854 -0.016894247 0.016064206 -0.062316224 -0.07165538
2.0438796e-20 0.06962135 -0.049579218 -0.015291313 3.5146627e-10 -0.05006738 -0.031028558 0.094020635
-0.14778045 -3.3031412e-08 0.041196685 0.10739935 6.87438e-40 -0.0028570385 0.06503736 -1.2392734e-05
-0.043001097 0.052019704 -0.15300944 0.14918979 0.054391436 5.579448e-39 0.0066214497 5.041705e-39
-0.1163697 -1.1874358e-05 -7.107546e-07 -0.054323804 -0.06412738 -9.714746e-12 3.07794e-40 -0.08070224
-3.0696552e-07 -0.05006188 6.189315e-39 -0.02604681 -0.03788214 -0.08775748 -2.599002e-39 -1.88103e-39
-0.015650755 -8.687533e-14 -0.02602902 -0.04495763 0.010374194 -1.0122085e-08 -0.0007886316 -6.55777e-35
-2.5675366e-25 -1.0338506e-06 -1.02488955e-11 -0.101640545 -0.0050037005 0.034324132 -2.2013468e-05 -0.016145365
-7.6904845e-12 0.004638909 -0.019302623 -0.09059462 -0.09302465 -0.010554206 -0.024318257 -0.008204867
0.096236065 0.0100103 -0.014989626 0.09221121 -0.0010228647 -0.011054023 -0.09702369 -1.2515439e-05
0.0070434315 0.043252036 3.7060777e-09 0.03250302 -0.06721288 -0.049296934 -5.5484404e-09 0.06323015
-0.066255696 2.2170032e-23 -0.02114725 -0.025357442 -0.0680144 -0.051191047 0.10257279 0.10001221
-0.14447832 -0.04902258 -3.8705434e-06 0.04967717 1.2674239e-32 -0.05319073 -0.09277151 -0.035091463
-0.03646886 -2.465784e-39 -0.020375254 3.732267e-39 -0.0031003833 1.993676e-28 -0.05192744 -0.0072892904
-0.0010627585 0.032273013 -8.287454e-09 0.034149215 -0.059985157 -0.045230098 -0.008485796 0.04086893
0.012047054 -1.05846096e-10 -0.050937187 -0.03631496 -0.09833263 -0.051644865 -0.074594006 0.13559142

fc.weight f4 [815, 128]
00000000: 4faa 80be 22b6 1c00 63a4 bbbd 07c0 06be
00000010: a430 75be 9cc0 9b3d eb7d 89be 2638 32be
00000020: f8d4 2709 740a 0ebe 1488 8cbe 0492 13bc
00000030: 2aad 8aa9 43a4 08be 6b64 37be 91bc edbd
00000040: 5573 7dbe 4ca6 b2ae 1d26 84be e619 193d
00000050: b93d 1680 5ffb d1bd aa90 82be dc8b aa2c
00000060: c6d9 1fbe fda8 9dbe 1f1f 93be ebfc 97be
00000070: 5144 903d 6be5 1100 fa00 55be 2380 0000
00000080: 8d36 88be 2b49 bc17 100f eba4 569f a9be
00000090: 758f 46be d300 d9bc a9d8 1d80 82b8 cabd
000000a0: e3ff 0580 7b7a a2be 798e 1700 e904 54be
000000b0: e01e 7ebe 4143 19be adcb 0280 c884 3480
000000c0: c7f1 64bd 81c4 9c3b 8154 52b9 9f1a 5fbe
000000d0: de69 89bc c228 c8b7 945a ba31 1e52 9e80
000000e0: b511 aa95 a327 ac81 42ab 3eb5 fe56 3ebe
000000f0: a7bb 91b5 b482 76be 5835 2180 a287 7bb9
00000100: 3cfb da19 3e65 63be 5897 06be 4ffd 9dbc
00000110: 948f a3be 8e0b 05be e7f2 2ebd 79aa 1bbe
00000120: 750d 5dbe 5e65 2cbe 70ac 8bbe 30c6 81be
00000130: 9c6e 73b8 0742 5fbe 8d3e 38be 9e8c 3b2e
00000140: c4c2 11be 0b5b 55be b470 0129 7d19 5abe
00000150: 7e3f 2dbe e7b9 76be fc66 4780 2cba 8abe
00000160: e7a3 5ebe 1c31 4c96 f59b debd e769 7ebe
00000170: d7d5 74be eb39 35be f968 ccbd 0ae0 393d
00000180: aa17 45be e66c 96be 2ffa ed93 92bc 87be
00000190: 1a84 2487 c78a 73be 2c27 56be 1397 79be
000001a0: fbf9 29be 6610 1980 55a3 fcbd 65a7 2a80
000001b0: 8f7d 63be d177 2480 d6a6 60be b869 27be
000001c0: febf 2fbe 370d 333d 93bc cdb3 95f3 353c
000001d0: 2870 88be b95f f13c 5df0 27b9 68cd 45be
000001e0: ed4a 51be f5b9 c29c 7dbf 1bbe 3d59 70be
000001f0: 2146 56be c129 92be e677 4ebe 34b9 4dbe
00000200: 46b7 63be d1f0 09a7 3638 b4be 5880 58be
00000210: 6946 e9be a416 3ebb a267 233d 3a7f 92be
00000220: 7831 c680 5601 0bbd fd0d c2be d12c 69bd
00000230: a80d 7c2d 74d8 65bd c7e1 7ebd 115d 423d
00000240: 9b7e c2bd 192a 042e 6571 d6bd 7232 1abe
00000250: 0bb8 0400 60af 2cbd eca6 1cbf 69ca 7f28
00000260: 1ef1 893d c219 19bf ac56 bcbe 12ed 5ebe
00000270: c4c4 98bd 34e8 95a7 d81e f8bd acab 293c
00000280: 1153 adbd 8b72 72bb 8787 8dbc 1d8f 03bb
00000290: 2fd2 6bbe 4fad 8dbc f287 f338 b974 cabd
000002a0: 27ce 67a2 18b6 223d fae1 0f80 52c4 523c
000002b0: 7a66 c7be ffd1 ac3d ce4e 3500 2999 d4aa
000002c0: a9fa 1f3c d3d2 58b7 6618 17bd 9ea0 08be
000002d0: 2abd ebbc 54a4 1cba a823 f7bc 3dc3 3600
000002e0: d49b dc3c 2a12 8f3b 2a4d 95b5 96d0 c43d
000002f0: c10b d5bc 90a5 9ebe 1c1c 108c 4e53 62bd
00000300: fa96 9a20 389e 1ebf d21f 2bbf 5340 44be
00000310: 6300 4cbe 8aeb 4bbd cea6 663c 3799 153d
00000320: c24e 17be 29e3 8ebe 4573 76be f01e debe
00000330: 4aae 9cbc 2c4a 11bf 3b51 28be d410 4ba8
00000340: b3f3 08bf aded 38be fe47 2fa7 d38d 9dbd
00000350: 6330 39be f9c6 97be 81bf 66ba b65b 2ebd
00000360: b9eb 63bd 671d d29b 78c4 11be ab91 0e3d
00000370: a134 c4be b8e7 aabd 8505 8cbe cf92 76be
00000380: 528e febd 55f9 9bbc 12f4 ebbc fe95 25be
00000390: 5965 3db6 6efa 0f3d f858 103d 94c8 0fbe
000003a0: ba1d c5be 7744 2200 2332 62be 9928 1500
000003b0: 9695 7abe 9080 0ea3 5bdb cf3d ca5a a0be
000003c0: 26c5 9bbe 0659 40bf 834f be3c 6ae5 36be
000003d0: 3501 99be dff7 b8bd a7d5 5fbd 9bde 0d3d
000003e0: cd6d cdbe bff5 a6bb dd82 ddbe 9bb1 c7be
000003f0: 1b0f 12bf e8e8 91bd 0565 a9be 2af5 b9be
-0.25129935 2.636731e-39 -0.09162214 -0.1315919 -0.23944336 0.07605097 -0.2685388 -0.17404231
2.0202031e-33 -0.13871175 -0.2744757 -0.009006981 -6.15847e-14 -0.13343911 -0.179094 -0.11608232
-0.24751027 -8.124043e-11 -0.25810328 0.037378214 -2.042523e-39 -0.10253023 -0.25500995 4.847218e-12
-0.15610418 -0.3079299 -0.2873468 -0.2968515 0.0704428 1.643503e-39 -0.20801154 4.5967e-41
-0.2660412 1.2167685e-24 -1.0194052e-16 -0.33129376 -0.19390662 -0.02648965 -2.740952e-39 -0.09898473
-5.50972e-40 -0.3173407 2.163326e-39 -0.20704998 -0.24816465 -0.14967062 -2.56736e-40 -4.823079e-39
-0.05589464 0.0047841673 -0.00020058641 -0.21787499 -0.016774114 -2.3860837e-05 5.42361e-09 -1.4539466e-38
-6.869039e-26 -6.32397e-38 -7.102973e-07 -0.18587872 -1.0857956e-06 -0.24073297 -3.049708e-39 -0.00023987753
2.2642144e-23 -0.2220659 -0.1314367 -0.019285826 -0.3194548 -0.12992689 -0.04271212 -0.15201749
-0.21587165 -0.16835544 -0.27279997 -0.25346518 -5.8038728e-05 -0.21802531 -0.17992611 4.264377e-11
-0.14234453 -0.20835511 2.874151e-14 -0.21298786 -0.16918752 -0.24094354 -6.557264e-39 -0.27095163
-0.21742211 -1.6494485e-25 -0.1086959 -0.24845086 -0.23909698 -0.17697875 -0.099809594 0.045379676
-0.19247308 -0.29379958 -6.007391e-27 -0.26511055 -1.237681e-34 -0.23783408 -0.2091338 -0.24374036
-0.16599266 -2.30177e-39 -0.123358406 -3.91714e-39 -0.22215866 -3.34906e-39 -0.21938643 -0.16348922
-0.17163083 0.043713775 -9.580358e-08 0.011105438 -0.26648068 0.02946459 -0.00016015903 -0.19316638
-0.20438738 -1.2885912e-21 -0.15209766 -0.23471542 -0.2092519 -0.2854748 -0.20162925 -0.2009018
-0.22237882 -1.9143116e-15 -0.35199136 -0.2114271 -0.4556153 -0.0029005194 0.039893754 -0.2861269
-1.8201174e-38 -0.03393682 -0.37901297 -0.056927506 1.4327574e-11 -0.05611463 -0.062227037 0.047452036
-0.09496804 3.0050715e-11 -0.10470847 -0.15058306 4.33364e-40 -0.042159438 -0.611922 1.4199234e-14
0.067354426 -0.5980493 -0.36784875 -0.21770123 -0.07459405 -4.1607563e-15 -0.12115258 0.010355871
-0.08463109 -0.0036994542 -0.017276539 -0.0020074316 -0.23029397 -0.017294554 0.00011612465 -0.09885544
-3.1415474e-18 0.03972444 -1.458598e-39 0.012864189 -0.3894537 0.08438491 4.895551e-39 -3.776504e-13
0.009764352 -1.292369e-05 -0.036888503 -0.1334252 -0.028776724 -0.00059754145 -0.03016837 5.029155e-39
0.026929773 0.004366179 -1.1123823e-06 0.09610097 -0.026006581 -0.3098569 -1.1101815e-31 -0.055255227
2.6188523e-19 -0.6196017 -0.6684543 -0.19165163 -0.19922023 -0.049785174 0.014077855 0.03652307
-0.14776137 -0.27907684 -0.2406741 -0.43382978 -0.019126076 -0.567538 -0.16437237 -1.1272413e-14
-0.53496855 -0.18059416 -2.4325156e-15 -0.076930664 -0.18084864 -0.29643992 -0.000880234 -0.04256793
-0.055644725 -3.4760587e-22 -0.14235103 0.03480689 -0.38321403 -0.08344978 -0.2734796 -0.2407944
-0.12429489 -0.01903979 -0.028802905 -0.16170499 -2.8222187e-06 0.035150938 0.035241097 -0.14041358
-0.38499242 3.146967e-39 -0.22089438 1.943109e-39 -0.24471125 -7.72506e-18 0.101492606 -0.31319267
-0.3042385 -0.7513584 0.023231274 -0.17860952 -0.29883733 -0.09031653 -0.054647114 0.03463612
-0.40122834 -0.005095213 -0.43263903 -0.3900269 -0.570543 -0.071245015 -0.33084884 -0.36319858

fc.bias f4 [815]
00000000: a08f 17be cb23 963e 0ea1 a8bd 931b 8bbd
00000010: d070 b2bd c190 8ebe 12a8 343d 72c9 8ebc
00000020: 2f1b 77bb 2593 8fbe a3cd 95bd 4449 1ebd
00000030: 24d5 18be 3c57 38be e04a 34be 0412 59bd
00000040: 44c0 a1bd 2edb dd3a 7377 763d d1f5 c4be
00000050: da0f 69be e232 29be 5e0f 01bd 02f8 ce3b
00000060: 3d4a 17bf 4d03 9dbe b07b 663e d66a 403e
00000070: 12e6 ef3d a2db b9be 61c9 47be 0bb9 b0bd
00000080: 746d e8be 193e 3cbb 2e07 9c3d 92ef 53bd
00000090: 0867 1ebe 5393 d0bc e374 f03d 9099 a8bc
000000a0: 4753 8ebc 0003 023d 74d3 a23c 0591 a0be
000000b0: 1e9d 1ebd 35a9 0e3d d75a 063d 85b3 34be
000000c0: e4c6 95bd a5b2 3fbe 4704 4f3e f917 51bd
000000d0: efe4 e8bd 0757 2fbd 2bc2 8a3e fcd8 303e
000000e0: 59da 84bd 0853 20be 89bd 023d 5167 95bd
000000f0: 05d2 71be 9140 1d3e 9c5c 623e 0d59 513e
00000100: 4732 33be 2a73 ddbe 631c 51bd ac9c ab3d
00000110: 2e50 423e dcbe a43e e983 e83d e81d 1c3e
00000120: 2462 20be 232c 9c3d d76d 893e d507 a7be
00000130: 1829 c1bd 9d18 e8bd 8c0f fdbc 1a45 43bd
00000140: fd20 cfbe 24f0 48bc 72a4 66bc 2deb 0f3e
00000150: 45c7 bbbd 8cf5 f03d a144 eabc d370 433c
00000160: 00a6 89bd cae0 d6bc 12d4 393c 0a08 bebe
00000170: 8811 413e 18b4 80be 665d fcbd e424 543e
00000180: 00c6 6abb 3830 4b3e d144 83bc f5c5 d7bd
00000190: e3b9 73be 229a 93bd 4247 92bc a287 33be
000001a0: 3669 9c3b b9a1 d9bd 707e 3abe 07da c33d
000001b0: 8b10 9ebd fe60 8cbe b5fb 273e beb1 ffbc
000001c0: b612 acbe 1c99 9bbe 8c25 cc3d 31b4 99be
000001d0: 8235 303e ad5a 46be 7c60 123e 80b0 cb3e
000001e0: c615 2e3d 5d96 9b3d 69f6 a8bc 8b77 fb3c
000001f0: 6427 a4bc a19b afbe 2525 dfbd e67b 27be
00000200: 9159 d9bd 68ca 5abd 0c17 5ebe 460b bf3d
00000210: a880 c03d 763d d6be fd03 573d 3aac b8bd
00000220: 4ddc b33d 2a50 0dbe 2d0e 7ebd c294 35be
00000230: 32b4 c93d 03f4 1bbd 6d33 cebd 7701 bcbd
00000240: ca10 38be 621b a73c d10a 583d 96b9 233d
00000250: f1c8 8e3e 2a15 60be 3501 75bc 9088 ab3d
00000260: 5496 15be d32c 97be 4e47 d43d e374 75be
00000270: 2bbc 2b3d b81a 8a3d cc7e 963d 5e35 e0be
00000280: 8920 febd 7b11 52be 5096 33be 18ac 93bd
00000290: cb34 d13c af20 9a3d d8f1 b83e dbce fb3d
000002a0: cf54 75be a0be 2c3e 14f2 2dbe 5ddd 88bb
000002b0: 6d04 bdbd 14d6 063e 9afe e53d 0b6f f9be
000002c0: 16e5 d5be ebb3 f9be e53d 00be c2d3 6b3d
000002d0: 58fa 99bc 8e09 8e3e 157e cdbc 2463 e8bd
000002e0: 2425 4abd b050 47bd cdbe dcbd 9cf2 bc3e
000002f0: 325c 303e 89fe 3dbe 7ea8 263d e64b 82be
00000300: 47ea c8bd 42e1 1ebd 69fd ccbd be84 463e
00000310: 3795 853d 3ab9 f23d aa30 71bb 48a6 26be
00000320: cdc1 87bc 2f31 b23d 9c4f 5c3e 4ef6 50be
00000330: 79e4 e9bd aba1 cfbd bcbf 77bd 135e 81bc
00000340: 0516 253e a39b 93bd 72e2 46be b2a9 823e
00000350: 7389 0e3d 8a8e 76bc 28ae f53d 5e29 15bd
00000360: b4a5 d5ba 3eb1 b4bc 9b29 fb3d 0c2f a43e
00000370: e4a4 153d 9718 a63e 241e 253e 2ac5 873e
00000380: f91a 8dbc 245d 5abe b90e 1d3d b7c2 c3bd
00000390: f209 c0bd 83b8 5dbd 263e 3bbe 7fd0 df3d
000003a0: 4183 29be 36a6 97be 745e d13c 4582 9ebd
000003b0: a6c8 0dbe a4af bc3d 1708 03be 5be4 083b
000003c0: 2777 04bd cc49 403c d640 16be ceac 9bbd
000003d0: 6015 1b3d f30d b53c becd 6f3e 9922 03be
000003e0: bc60 9d3d 31c8 a23d 4fc4 b9bc 32ce 06ba
000003f0: 1518 2c3d 76a1 953d 032d 453d fd9a 74be
-0.14800882 0.29324183 -0.08233844 -0.06792369 -0.087129235 -0.27844813 0.044105597 -0.017430041
-0.0037705412 -0.2804195 -0.07314613 -0.03864409 -0.14925057 -0.18002027 -0.17606688 -0.052995697
-0.07898 0.0016926283 0.06017251 -0.38468793 -0.22759953 -0.16523317 -0.031508796 0.006316186
-0.59097654 -0.3066658 0.2250812 0.18790755 0.11713804 -0.3630038 -0.19510414 -0.08629044
-0.45396006 -0.0028723537 0.07618557 -0.051742144 -0.15468991 -0.025460875 0.11741044 -0.020581037
-0.017373694 0.031741142 0.01987622 -0.3136064 -0.038724057 0.034829337 0.032801475 -0.17646606
-0.07313326 -0.18720491 0.20216475 -0.051048253 -0.113717906 -0.042807605 0.27101263 0.17270273
-0.06486959 -0.15656674 0.031919036 -0.07295097 -0.23615272 0.15356661 0.2210564 0.20444126
-0.17499648 -0.43251926 -0.051052462 0.08379492 0.18975899 0.32176864 0.11353285 0.15245783
-0.15662438 0.07625606 0.26841614 -0.32623163 -0.09431666 -0.113328196 -0.030891202 -0.047673322
-0.40454856 -0.012264285 -0.014077293 0.14054556 -0.09168867 0.11765584 -0.028597178 0.011928755
-0.06721115 -0.026230235 0.011342065 -0.37115508 0.18854344 -0.251374 -0.12322502 0.20717198
-0.0035823584 0.19842613 -0.016024025 -0.10535804 -0.23801379 -0.07207133 -0.017856244 -0.17532209
0.0047732843 -0.10626549 -0.18212295 0.0956307 -0.07717999 -0.2741775 0.16404612 -0.031212684
-0.33608025 -0.3039025 0.09968099 -0.30020288 0.17207912 -0.19370528 0.14294618 0.39783096
0.042501234 0.07597039 -0.02062531 0.030696651 -0.020038314 -0.34298423 -0.10895757 -0.16355857
-0.106127866 -0.053415686 -0.21688479 0.09328322 0.09399539 -0.41843766 0.052494038 -0.090172246
0.087822534 -0.13800111 -0.062025238 -0.17732528 0.09848823 -0.038074505 -0.100684024 -0.09179967
-0.17975155 0.0203988 0.05274469 0.03997191 0.2788768 -0.21883073 -0.014953901 0.083756566
-0.14608127 -0.29526386 0.10365163 -0.2397037 0.041927498 0.067433774 0.07348403 -0.43790716
-0.12408549 -0.20514481 -0.17537808 -0.07210559 0.025537869 0.07525765 0.36122012 0.12295314
-0.23958133 0.16869593 -0.16986877 -0.004176779 -0.0922936 0.13167602 0.11230202 -0.48717532
-0.4177634 -0.4877008 -0.12523611 0.057574995 -0.018796131 0.27741665 -0.025084535 -0.113470346
-0.049351826 -0.048660934 -0.1077858 0.36903846 0.1722267 -0.18554129 0.04068803 -0.2544853
-0.0981031 -0.03878904 -0.10009272 0.19386575 0.06522601 0.118517354 -0.0036802688 -0.16274369
-0.016571904 0.08700787 0.21514744 -0.20406458 -0.11420531 -0.101382576 -0.060485587 -0.015791928
0.16121681 -0.0720742 -0.1942232 0.25520092 0.03479905 -0.015048632 0.11996108 -0.036416404
-0.0016299994 -0.022057172 0.12263795 0.32067144 0.036534205 0.32440636 0.16124779 0.26517612
-0.017224776 -0.21324593 0.03834412 -0.09558623 -0.09376897 -0.054131042 -0.18285426 0.10928439
-0.16553976 -0.29618996 0.025557734 -0.07739691 -0.13846073 0.09213188 -0.12796055 0.0020888064
-0.032340195 0.011736345 -0.1467317 -0.07601319 0.03786218 0.022101378 0.23418328 -0.12806167
0.07684466 0.0794834 -0.022676615 -0.000514242 0.042015154 0.07306187 0.04813863 -0.23887248
